NLP with Pytorch/model_storage/ch6/surname_classification/model.pth (torch, 99127 bytes, 9 tensors)

emb.weight f4 [80, 100]
0.0 0.0 0.0 0.0 0.0 0.0 0.0 0.0
0.0 0.0 0.0 0.0 0.0 0.0 0.0 0.0
0.0 0.0 0.0 0.0 0.0 0.0 0.0 0.0
0.0 0.0 0.0 0.0 0.0 0.0 0.0 0.0
0.0 0.0 0.0 0.0 0.0 0.0 0.0 0.0
0.0 0.0 0.0 0.0 0.0 0.0 0.0 0.0
0.0 0.0 0.0 0.0 0.0 0.0 0.0 0.0
0.0 0.0 0.0 0.0 0.0 0.0 0.0 0.0
0.0 0.0 0.0 0.0 0.0 0.0 0.0 0.0
0.0 0.0 0.0 0.0 0.0 0.0 0.0 0.0
0.0 0.0 0.0 0.0 0.0 0.0 0.0 0.0
0.0 0.0 0.0 0.0 0.0 0.0 0.0 0.0
0.0 0.0 0.0 0.0 0.03154889 -0.7419016 -0.29778957 0.017165666
-0.1772239 -0.13342951 0.29395735 1.3849541 0.12091276 2.5417871 -0.64046 -1.9740105
-0.32956925 0.007958851 0.9262348 -1.8845556 0.1669616 0.45862234 -1.7662065 0.5859862
1.7510315 0.28072214 0.31096315 -0.65375805 -0.65762633 0.31844944 -0.5495865 -1.4649245
-2.0555017 1.8274626 1.3035277 -0.450132 1.3471215 1.6909801 -0.12444574 -1.6823665
-0.026608044 0.07404919 1.0517149 0.6778932 0.30665475 -0.7472333 0.7434943 0.88765764
2.2874365 0.96113855 -1.5296903 -0.29122463 -0.11395203 -0.31366795 -0.6293117 1.1385068
-0.99127394 0.1699892 1.2248735 -0.23453896 -1.0571605 -0.65426755 1.590885 -0.6994915
-0.89605623 0.0661913 -0.056280244 2.341223 -2.723433 0.509673 -0.8144687 -0.2460404
0.0045085433 2.0474298 -0.15754561 -0.21867052 -1.3519301 -0.057280593 -1.853978 -1.38489
-0.34539968 -1.1625037 0.14448078 0.16632313 0.75069964 0.9131729 -1.7277395 1.3055398
0.95932335 1.0599629 0.62986356 -1.2866658 -0.68748116 2.1382189 0.51141226 1.21909
0.19098009 -0.3425078 1.7955087 1.3914595 1.0785228 -0.6149516 -0.45885316 0.5674816
-0.019201329 -1.6204336 1.2750757 0.374107 -1.1818528 -1.021153 -0.09103501 0.09596931
0.1835294 -0.6237713 -0.49430564 -0.50532275 0.7668788 0.49466038 1.1522995 0.75943375
0.3919852 0.9370047 -0.36382416 -0.7650589 -0.6338094 0.41730368 -0.4660172 -0.537072
-0.55991966 -0.2674556 -0.1755524 -0.23955706 -0.019002981 0.74188066 -0.089650646 -0.5073453
0.8577258 -1.6225226 0.7113709 -2.0175953 -1.0297633 0.17307125 -0.41156062 -0.5282743
1.5716538 -0.02821092 -0.8946151 -1.2303995 0.5287978 -0.33137432 0.038686357 -0.7447333
-0.28479704 0.15155585 -0.76682764 -1.2624223 1.1319287 -1.7803121 -0.47100347 1.0276794
00000000: 0000 0000 0000 0000 0000 0000 0000 0000
00000010: 0000 0000 0000 0000 0000 0000 0000 0000
00000020: 0000 0000 0000 0000 0000 0000 0000 0000
00000030: 0000 0000 0000 0000 0000 0000 0000 0000
00000040: 0000 0000 0000 0000 0000 0000 0000 0000
00000050: 0000 0000 0000 0000 0000 0000 0000 0000
00000060: 0000 0000 0000 0000 0000 0000 0000 0000
00000070: 0000 0000 0000 0000 0000 0000 0000 0000
00000080: 0000 0000 0000 0000 0000 0000 0000 0000
00000090: 0000 0000 0000 0000 0000 0000 0000 0000
000000a0: 0000 0000 0000 0000 0000 0000 0000 0000
000000b0: 0000 0000 0000 0000 0000 0000 0000 0000
000000c0: 0000 0000 0000 0000 0000 0000 0000 0000
000000d0: 0000 0000 0000 0000 0000 0000 0000 0000
000000e0: 0000 0000 0000 0000 0000 0000 0000 0000
000000f0: 0000 0000 0000 0000 0000 0000 0000 0000
00000100: 0000 0000 0000 0000 0000 0000 0000 0000
00000110: 0000 0000 0000 0000 0000 0000 0000 0000
00000120: 0000 0000 0000 0000 0000 0000 0000 0000
00000130: 0000 0000 0000 0000 0000 0000 0000 0000
00000140: 0000 0000 0000 0000 0000 0000 0000 0000
00000150: 0000 0000 0000 0000 0000 0000 0000 0000
00000160: 0000 0000 0000 0000 0000 0000 0000 0000
00000170: 0000 0000 0000 0000 0000 0000 0000 0000
00000180: 0000 0000 0000 0000 0000 0000 0000 0000
00000190: 6939 013d 43ed 3dbf e077 98be 039f 8c3c
000001a0: 2f7a 35be bfa1 08be 9481 963e 2d46 b13f
000001b0: 1ca1 f73d a4ac 2240 30f5 23bf 60ac fcbf
000001c0: 4dbd a8be d765 023c b91d 6d3f 1e39 f1bf
000001d0: fbf7 2a3e 8cd0 ea3e 0e13 e2bf 3103 163f
000001e0: cd21 e03f d0ba 8f3e 9036 9f3e b05c 27bf
000001f0: 335a 28bf ce0b a33e b3b1 0cbf a582 bbbf
00000200: 578d 03c0 4bea e93f ffd9 a63f b477 e6be
00000210: 7a6e ac3f 0972 d83f 68dd febd c957 d7bf
00000220: 1df9 d9bc 1aa7 973d 989e 863f 698a 2d3f
00000230: da01 9d3e ae4a 3fbf a455 3e3f 883d 633f
00000240: 5c65 1240 2d0d 763f e4cc c3bf 651b 95be
00000250: af5f e9bd 1699 a0be 921a 21bf 97ba 913f
00000260: 21c4 7dbf a611 2e3e a8c8 9c3f fb2a 70be
00000270: 0951 87bf 147e 27bf 1fa2 cb3f e011 33bf
00000280: f163 65bf 4e8f 873d 1d86 66bd 99d6 1540
00000290: ba4c 2ec0 ee79 023f 0581 50bf 04f2 7bbe
000002a0: 67bc 933b 1709 0340 a353 21be 2aeb 5fbe
000002b0: 0c0c adbf 0e9f 6abd 274f edbf 1344 b1bf
000002c0: 3ad8 b0be eccc 94bf c5f2 133e 9c50 2a3e
000002d0: da2d 403f b3c5 693f 9126 ddbf ee1b a73f
000002e0: 3796 753f ddac 873f bd3e 213f 77b1 a4bf
000002f0: c4fe 2fbf 94d8 0840 eaeb 023f 240b 9c3f
00000300: 4990 433e 2f5d afbe 3bd3 e53f 581b b23f
00000310: 090d 8a3f 786d 1dbf cdee eabe 7946 113f
00000320: 1b4c 9dbc 5e6a cfbf ae35 a33f f48a bf3e
00000330: f446 97bf 24b5 82bf 9070 babd 8f8b c43d
00000340: 22ef 3b3e 7aaf 1fbf a115 fdbe d55c 01bf
00000350: 2b52 443f 2044 fd3e 8d7e 933f 406a 423f
00000360: 49b2 c83e 8adf 6f3f 2947 babe e6da 43bf
00000370: 5541 22bf d4a8 d53e ce99 eebe 8d7d 09bf
00000380: e556 0fbf f1ef 88be 02c4 33be 724e 75be
00000390: 24ac 9bbc e4eb 3d3f c29a b7bd 62e1 01bf
000003a0: eb93 5b3f d2ae cfbf 671c 363f 4820 01c0
000003b0: 49cf 83bf 9739 313e 13b8 d2be fc3c 07bf
000003c0: f42b c93f 961a e7bc 7f05 65bf bb7d 9dbf
000003d0: 4b5f 073f e5a9 a9be 9675 1e3d d7a6 3ebf
000003e0: ebd0 91be 7531 1b3e d14e 44bf 0e97 a1bf
000003f0: 0ae3 903f 44e1 e3bf 5e27 f1be 008b 833f

rnn.rnn_cell.weight_ih f4 [64, 100]
-0.04561912 0.061807558 -0.043219876 -0.1588274 -0.110693306 0.1163849 -0.0021250758 0.18391745
-0.06252867 -0.043183457 0.067255355 0.08862523 -0.07177796 -0.07791861 -0.07201319 -0.105272934
0.02090295 0.124589555 0.004337933 -0.10005452 -0.06995435 -0.033509392 -0.05279031 -0.033201914
0.057049524 -0.089527845 -0.010835897 -0.122264855 -0.03771204 -0.018572967 0.014969117 0.13008928
-0.080327354 0.11369691 -0.052060876 0.068703756 0.113430254 0.09888774 0.16186845 0.04469665
-0.13053763 -0.13305786 -0.049753558 0.07737263 0.12004533 0.026332073 -0.09192733 0.0670482
0.08152476 0.061122663 -0.024208693 -0.16634278 -0.09731795 0.060612 -0.100356676 -0.112270765
0.047545295 0.05348715 -0.05597648 0.06764851 -0.024281425 0.07055935 0.0267111 0.036518455
-0.066159874 0.054174706 -0.08637856 0.007075721 -0.09952624 -0.079401486 0.0044060703 -0.058854908
-0.070878476 -0.052883647 0.005845953 0.15669788 -0.09003624 0.09100673 -0.10703894 0.0330592
0.12170272 0.11322668 -0.13541853 0.12164039 -0.011130426 0.15562993 -0.084128454 -0.0031474286
0.0005721643 -0.0058844583 0.13781282 0.008524448 0.09109214 -0.09138519 -0.17185842 -0.14524321
0.114329755 -0.08371884 0.08854612 0.030049376 0.108007945 -0.021821944 0.060298394 0.051364798
-0.15245995 0.02883017 0.01685047 -0.07563546 -0.07889121 0.053376526 0.048058588 0.031871513
0.18042657 -0.052347165 0.09066282 -0.044733167 0.11671664 -0.10187985 0.008262121 -0.031844486
-0.035249468 -0.16534853 0.004400131 0.10173476 0.05257506 0.1742038 -0.06615896 -0.09683238
-0.10059713 -0.013740741 0.14452678 0.13408576 -0.032968935 -0.11019447 0.07308539 0.06556511
0.0087938225 -0.05355902 -0.049299598 0.023764938 0.07186273 -0.09681119 -0.062467482 0.07719311
-0.13077557 -0.15002555 -0.0381178 -0.15370324 -0.01685414 0.0052137175 -0.1576798 -0.14101161
0.108694434 -0.13341866 0.081048846 0.114979886 0.15939046 -0.12555616 -0.09682488 -0.06239255
-0.10017398 -0.016690973 -0.1326204 0.040714182 -0.099344544 0.098050945 0.026632244 0.06975631
-0.19185701 -0.05658097 0.08888526 0.14146362 0.16250715 -0.093830824 -0.046105314 0.032775715
-0.0076392246 0.008594391 -0.044437908 -0.054896414 0.002657232 0.09183977 0.0653539 -0.1919604
-0.02458568 -0.1220463 0.1339716 -0.10778838 -0.092868954 0.117579915 -0.046193924 -0.032037467
-0.0005171681 -0.008912837 -0.011304857 0.055601712 0.03397509 -0.06752937 -0.17666392 0.15650427
0.095994614 0.05137976 0.056358065 -0.016277235 0.0890455 0.048504744 0.08432076 -0.05179744
-0.047500633 0.045496907 -0.075716384 -0.10918722 0.045258634 -0.021498522 0.10302264 0.0037904964
0.063697524 -0.15386471 -0.037694704 -0.026303662 -0.010682754 0.084503435 0.069344215 0.085462056
0.076074414 -0.0014370545 -0.01664964 0.0454775 -0.014930205 -0.17792225 0.09278039 -0.111999534
0.040082324 0.060331356 0.0030940373 0.16999735 -0.033518896 0.09832019 0.09075485 -0.07649757
-0.08934551 -0.089621596 0.09175209 -0.021261193 -0.059512474 -0.076585844 0.080804184 -0.0061259284
-0.08070221 0.054608062 -0.14900695 0.09754172 0.096836075 -0.030644028 0.039917417 -0.08621081
00000000: 1ddb 3abd ec29 7d3d 5307 31bd a6a3 22be
00000010: 2cb3 e2bd 355b ee3d db44 0bbb db54 3c3e
00000020: 080f 80bd 23e1 30bd 2dbd 893d 2581 b53d
00000030: 5300 93bd cb93 9fbd a77b 93bd 5699 d7bd
00000040: aa3c ab3c cf28 ff3d 3825 8e3b 62e9 ccbd
00000050: 3a44 8fbd 2541 09bd a73a 58bd bbfe 07bd
00000060: c3ac 693d 605a b7bd 0c89 31bc ff65 fabd
00000070: f177 1abd 5626 98bc 0741 753c 2036 053e
00000080: ab82 a4bd edd9 e83d c93d 55bd 8eb4 8c3d
00000090: 1f4e e83d a885 ca3d d8c0 253e d613 373d
000000a0: a8ab 05be 5240 08be 63ca 4bbd 8b75 9e3d
000000b0: 53da f53d 5cb6 d73c 6544 bcbd 9150 893d
000000c0: 74f6 a63d c25b 7a3d 4f51 c6bc c355 2abe
000000d0: a24e c7bd 4a44 783d cd87 cdbd 37ee e5bd
000000e0: dbbe 423d 5815 5b3d 9847 65bd 4d8b 8a3d
000000f0: d7e9 c6bc 6c81 903d 3dd1 da3c 6094 153d
00000100: d47e 87bd 4ce6 5d3d 3ee7 b0bd 73db e73b
00000110: 6ad4 cbbd 3f9d a2bd cc60 903b d811 71bd
00000120: bc28 91bd 869c 58bd 688f bf3b 6975 203e
00000130: ec64 b8bd bd61 ba3d 3b37 dbbd 1569 073d
00000140: 473f f93d 64e3 e73d 28ab 0abe 991e f93d
00000150: 645c 36bc 745d 1f3e 8a4b acbd 1745 4ebb
00000160: 4cfd 153a 6ad2 c0bb ce1e 0d3e 20aa 0b3c
00000170: 848e ba3d 2928 bbbd a7fb 2fbe a3ba 14be
00000180: b825 ea3d c874 abbd ab57 b53d 1c2a f63c
00000190: 4533 dd3d efc3 b2bc 73fb 763d e563 523d
000001a0: 761e 1cbe 402d ec3c ff09 8a3c c4e6 9abd
000001b0: b791 a1bd 58a1 5a3d 15d9 443d b48b 023d
000001c0: bec1 383e fb69 56bd 6ead b93d 203a 37bd
000001d0: 2209 ef3d 62a6 d0bd d95d 073c 5d6f 02bd
000001e0: bf61 10bd 2051 29be f92e 903b 505a d03d
000001f0: f258 573d 7b62 323e 597e 87bd 0e50 c6bd
00000200: de05 cebd d820 61bc d4fe 133e c74d 093e
00000210: 6f0a 07bd a3ad e1bd cbad 953d 0047 863d
00000220: f713 103c b460 5bbd 60ee 49bd b0ae c23c
00000230: c42c 933d f244 c6bd e7dd 7fbd 6c17 9e3d
00000240: 08ea 05be 4ca0 19be 6921 1cbd 6264 1dbe
00000250: b211 8abc d5d7 aa3b d076 21be 5965 10be
00000260: 309b de3d e79e 08be f0fc a53d 937a eb3d
00000270: 4137 233e cb91 00be 1f4c c6bd 558f 7fbd
00000280: 0428 cdbd 82bb 88bc a4cd 07be eac3 263d
00000290: 2775 cbbd efce c83d dd2b da3c 65dc 8e3d
000002a0: 2a76 44be 72c1 67bd 7a09 b63d d7db 103e
000002b0: 4668 263e 602a c0bd edd8 3cbd d43f 063d
000002c0: 7652 fabb 7dcf 0c3c 8604 36bd 10db 60bd
000002d0: f524 2e3b 7d16 bc3d 44d8 853d 4491 44be
000002e0: e867 c9bc 69f3 f9bd da2f 093e 27c0 dcbd
000002f0: 1432 bebd bdcd f03d d735 3dbd b839 03bd
00000300: 9092 07ba 2607 12bc 0238 39bc 9fbe 633d
00000310: 7729 0b3d d74c 8abd 63e7 34be a842 203e
00000320: d398 c43d 9573 523d b7d7 663d d657 85bc
00000330: 7d5d b63d e9ac 463d 5db0 ac3d 8d29 54bd
00000340: 0690 42bd f75a 3a3d 3111 9bbd 8d9d dfbd
00000350: 1e61 393d ab1d b0bc 89fd d23d fa69 783b
00000360: d973 823d b68e 1dbe c365 1abd c77a d7bc
00000370: b806 2fbc 2310 ad3d 5704 8e3d bb06 af3d
00000380: e7cc 9b3d 8c5b bcba d364 88bc 9d46 3a3d
00000390: d29d 74bc 4031 36be a503 be3d 0360 e5bd
000003a0: 5d2d 243d 031e 773d 55c5 4a3b c913 2e3e
000003b0: 1c4b 09bd 195c c93d aedd b93d c2aa 9cbd
000003c0: c7fa b6bd 878b b7bd 85e8 bb3d f42b aebc
000003d0: 5ac3 73bd 0ad9 9cbd aa7c a53d 03bc c8bb
000003e0: 3347 a5bd b4ac 5f3d 4795 18be f4c3 c73d
000003f0: fe51 c63d 2f09 fbbc 7280 233d 4b8f b0bd

rnn.rnn_cell.weight_hh f4 [64, 64]
0.18987927 0.013695974 -0.12198504 -0.053673092 -0.36596522 0.045308992 -0.05025547 0.16288531
-0.10108693 0.16745532 0.118185446 -0.17756766 -0.07234132 0.056447323 0.08042535 0.28798023
0.023708934 0.10486972 0.16435197 0.10547389 -0.020747758 0.14627087 -0.15751573 -0.16536756
0.24979433 -0.0045866105 -0.17689562 0.08750979 -0.15993279 0.24985391 0.0015636943 -0.03521997
-0.080678344 0.20076 -0.019060211 -0.123834334 -0.06539431 0.29813457 -0.005262549 -0.0479136
-0.015526889 -0.05635451 -0.18784717 0.1980214 0.07252843 -0.029348437 -0.07624792 0.020966742
-0.2597799 -0.066745885 -0.10637636 -0.01716123 -0.065870084 0.03703815 0.04823954 -0.07034384
0.007210385 0.16831921 0.05535141 0.19936854 -0.12921113 0.11812373 0.08931328 -0.08411023
0.055857286 -0.131345 0.060180865 0.12959516 0.023210699 0.052379694 0.20217997 0.10563822
0.12913892 -0.05497131 -0.18702927 0.08094662 0.15638746 -0.04725216 0.29868734 0.15036182
0.2906219 -0.0019295169 -0.18889937 -0.08330864 0.022737011 -0.0772723 -0.026451452 -0.10662415
-0.089928254 -0.055852212 -0.14205238 0.10715778 0.027530745 -0.07086776 -0.008717676 -0.164957
-0.06624718 0.15297516 0.09270231 0.027301807 -0.046376877 0.16243283 0.033834826 0.15662774
0.10728606 0.1032526 -0.0575487 -0.10504025 -0.1402369 -0.03256117 0.04542092 0.15763389
-0.051853918 -0.20315818 -0.019174755 -0.026163295 -0.006419209 -0.054922253 -0.17752688 -0.090738595
-0.08306142 -0.05471687 0.020046003 -0.06590712 0.030465018 -0.07351639 -0.04225453 0.009348927
-0.077468626 -0.14505447 0.056457087 0.044978634 -0.029490866 0.10007458 0.08497349 -0.020153694
-0.012557784 0.08179414 -0.09586451 0.25122592 0.12621179 0.13174291 -0.2427936 -0.0016162797
0.037626244 -0.17959307 0.0462063 -0.14861901 0.11924923 -0.326527 0.11294044 0.08939014
-0.032710146 -0.09074804 0.107757606 0.0016032784 0.19459435 0.0628569 0.07329107 -0.07412658
-0.1282238 -0.027066555 0.03725422 0.20842838 0.16392063 0.031155853 -0.01456682 -0.0625714
0.10110347 0.17151836 0.060215704 -0.087548554 0.11488639 -0.15110432 -0.046057887 0.1205304
-0.020604588 -0.099632174 -0.1557955 0.1254044 -0.087296195 0.190874 0.058367148 0.20364603
0.14102447 0.016482873 -0.06189179 -0.035214473 0.029209558 -0.05348939 -0.0071974243 -0.21074486
-0.19205321 -0.11202449 0.1991913 0.041294772 0.18094715 0.08159376 0.2262095 -0.14343598
-0.10114151 0.014406323 -0.14769076 0.15877655 0.035091437 0.12157534 0.17291766 -0.14773062
0.17946327 0.063000225 -0.13055837 -0.24825133 -0.07562544 -0.0868407 0.033497278 -0.009589746
-0.26719928 0.118250236 0.25350556 -0.07493491 0.011672831 0.0064965053 -0.13148254 0.16255131
-0.059680745 -0.15126334 0.13237715 0.08131739 0.25935975 -0.22534493 0.11611962 0.042829756
0.0943476 0.010661754 -0.11937558 -0.13226023 -0.15045677 -0.050530355 -0.05372444 0.11358827
0.19319297 -0.023952736 -0.09155535 0.23733191 -0.14757366 0.12181847 -0.041666392 0.09605986
0.02195227 -0.061574124 -0.2156805 0.018836271 0.17711897 -0.15948726 0.043990977 0.03616595
00000000: b66f 423e 1465 603c 4bd3 f9bd 51d8 5bbd
00000010: cb5f bbbe ec95 393d aed8 4dbd 68cb 263e
00000020: aa06 cfbd 6879 2b3e 360b f23d 4cd4 35be
00000030: b027 94bd 4f35 673d 0cb6 a43d 2572 933e
00000040: 3d39 c23c f0c5 d63d e24b 283e b202 d83d
00000050: 34f7 a9bc 08c8 153e ce4b 21be 1d56 29be
00000060: 16ca 7f3e 474b 96bb 2024 35be 5538 b33d
00000070: 6cc5 23be b4d9 7f3e e0f4 cc3a d142 10bd
00000080: b03a a5bd 0894 4d3e 2924 9cbc db9c fdbd
00000090: 74ed 85bd 18a5 983e 7671 acbb 0d41 44bd
000000a0: 7e64 7ebc fdd3 66bd 025b 40be 1fc6 4a3e
000000b0: c989 943d 226c f0bc df27 9cbd 72c2 ab3c
000000c0: df01 85be 11b2 88bd d9db d9bd b595 8cbc
000000d0: e5e6 86bd 51b5 173d d396 453d 6e10 90bd
000000e0: 1845 ec3b df5b 2c3e 29b8 623d 4427 4c3e
000000f0: ec4f 04be dbea f13d e2e9 b63d fc41 acbd
00000100: 9cca 643d 4e7f 06be 3680 763d 98b4 043e
00000110: 5d24 be3c 178c 563d 4408 4f3e da58 d83d
00000120: fe3c 043e 9929 61bd 9a84 3fbe 57c7 a53d
00000130: 0924 203e 7b8b 41bd 8ced 983e 73f8 193e
00000140: 65cc 943e d8e7 fcba d66e 41be b89d aabd
00000150: f842 ba3c f140 9ebd b7b0 d8bc c35d dabd
00000160: 4e2c b8bd 4ac5 64bd 2e76 11be 8a75 db3d
00000170: 2888 e13c 1e23 91bd 95d4 0ebc 7dea 28be
00000180: 9aac 87bd 85a5 1c3e b5da bd3d 0aa8 df3c
00000190: aef5 3dbd cb54 263e 6396 0a3d 0663 203e
000001a0: cbb8 db3d 1976 d33d 30b8 6bbd 581f d7bd
000001b0: 439a 0fbe dd5e 05bd 490b 3a3d c76a 213e
000001c0: c664 54bd b308 50be 6014 9dbc 6854 d6bc
000001d0: 3a58 d2bb 28f6 60bd 9bc9 35be 28d5 b9bd
000001e0: 1b1c aabd cc1e 60bd 8437 a43c 50fa 86bd
000001f0: c691 f93c c38f 96bd 1613 2dbd 3e2c 193c
00000200: dfa7 9ebd 2989 14be 8c3f 673d 843b 383d
00000210: d496 f1bc e7f3 cc3d 9506 ae3d 5c19 a5bc
00000220: 2abf 4dbc b083 a73d 9d54 c4bd afa0 803e
00000230: aa3d 013e 9de7 063e e39e 78be 59d9 d3ba
00000240: fa1d 1a3d 3fe7 37be d142 3d3d 952f 18be
00000250: f138 f43d 8c2e a7be 514d e73d 2d12 b73d
00000260: 13fb 05bd 1cda b9bd 05b0 dc3d 1925 d23a
00000270: be43 473e 1ebb 803d a119 963d adcf 97bd
00000280: 1a4d 03be aeba ddbc e297 183d 406e 553e
00000290: cfda 273e 8f3a ff3c aca9 6ebc 6f25 80bd
000002a0: 560f cf3d 82a2 2f3e bea4 763d a84c b3bd
000002b0: 8e49 eb3d 17bb 1abe 32a7 3cbd a4d8 f63d
000002c0: f4ca a8bc f40b ccbd db88 1fbe 036a 003e
000002d0: 59c8 b2bd 7974 433e 6412 6f3d 9688 503e
000002e0: b868 103e 1707 873c 3f82 7dbd 0d3d 10bd
000002f0: e248 ef3c b117 5bbd 5fd8 ebbb 80cd 57be
00000300: 99a9 44be 196d e5bd cef8 4b3e b524 293d
00000310: 364a 393e a11a a73d 77a3 673e e2e0 12be
00000320: 4823 cfbd 8008 6c3c 3f3c 17be 5296 223e
00000330: 0abc 0f3d 7efc f83d 5411 313e b246 17be
00000340: 38c5 373e 4306 813d 18b1 05be 9935 7ebe
00000350: 83e1 9abd 89d9 b1bd 7134 093d 4f1e 1dbc
00000360: 58ce 88be 2e2d f23d 7bcb 813e 7977 99bd
00000370: 673f 3f3c a3e0 d43b 5ca3 06be da73 263e
00000380: cc73 74bd c7e4 1abe e08d 073e bb89 a63d
00000390: cdca 843e d2c0 66be 20d0 ed3d 416e 2f3d
000003a0: 5139 c13d a3ae 2e3c 2f7b f4bd 3a6f 07be
000003b0: 5711 1abe ebf8 4ebd 290e 5cbd f8a0 e83d
000003c0: 61d4 453e 8738 c4bc 5f81 bbbd 2307 733e
000003d0: 8d1d 17be f67b f93d 61aa 2abd 08bb c43d
000003e0: 3fd5 b33c 2635 7cbd 59db 5cbe 864e 9a3c
000003f0: ad5e 353e a150 23be e22f 343d bf22 143d

rnn.rnn_cell.bias_ih f4 [64]
-0.078959346 -0.05311375 -0.08566685 0.104170024 -0.061479975 -0.0059508323 0.07573844 -0.061391056
-0.09265947 0.14119038 0.041712083 0.07387849 0.057544146 0.022295183 0.068354174 0.038655125
-0.025395082 -0.02364199 -0.07445189 -0.075298086 -0.068919346 0.10862432 -0.020446451 -0.14133133
0.038414232 -0.10349508 0.057282235 -0.09304603 -0.118032515 0.01695304 -0.0886042 0.008233969
0.03217406 0.063977465 0.09854432 0.06011573 0.070464835 0.13714261 -0.05557501 -0.0066233007
-0.06748633 0.092782654 0.08746275 0.0882674 0.015580838 -0.03288935 -0.0999902 0.05704394
-0.06470373 0.03006719 -0.13917954 0.08237722 -0.15764858 -0.12280015 -0.08233514 -0.053693168
0.100549735 -0.008311383 0.03709302 -0.09534743 0.0016254038 0.05236246 0.035975646 -0.048531402
00000000: 70b5 a1bd ce8d 59bd 1a72 afbd 1857 d53d
00000010: 6dd2 7bbd 33ff c2bb c11c 9b3d 3075 7bbd
00000020: 40c4 bdbd 3694 103e 4ada 2a3d 9b4d 973d
00000030: 69b3 6b3d 63a4 b63c 46fd 8b3d d654 1e3d
00000040: 5909 d0bc d9ac c1bc 3c7a 98bd e235 9abd
00000050: 9625 8dbd 6d76 de3d 517f a7bc 29b9 10be
00000060: 3e58 1d3d 3af5 d3bd c7a0 6a3d eb8e bebd
00000070: 08bb f1bd 1ae1 8a3c 1e76 b5bd c5e7 063c
00000080: f2c8 033d 9e06 833d 9bd1 c93d e93b 763d
00000090: de4f 903d 1d6f 0c3e 9fa2 63bd 4608 d9bb
000000a0: 4636 8abd d504 be3d ac1f b33d 8ac5 b43d
000000b0: c546 7f3c fcb6 06bd a9c7 ccbd e8a6 693d
000000c0: 6483 84bd 784f f63c 1585 0ebe 63b5 a83d
000000d0: a16e 21be a57e fbbd 539f a8bd 5eed 5bbd
000000e0: 05ed cd3d 782c 08bc daee 173d 8345 c3bd
000000f0: 800b d53a 057a 563d 335b 133d ddc8 46bd

rnn.rnn_cell.bias_hh f4 [64]
0.020128474 0.08531058 -0.07881242 0.034765568 0.040716898 0.09495264 0.027233496 0.0475026
-0.08928185 -0.031093972 0.072299674 -0.022861812 -0.082816966 -0.07521916 -0.035086393 0.12776971
0.042053603 0.12024482 0.06682967 0.02203219 0.08909314 0.054230515 -0.073359825 0.05018634
0.086692505 -0.09575027 -0.08264019 0.0133439265 0.0736664 0.019905996 0.1484534 -0.0761656
-0.10798216 0.1022595 -0.06493615 -0.05239193 -0.08935052 0.16188504 0.09674024 -0.037638847
0.11682223 -0.10114496 -0.062514775 0.047834862 0.056805518 -0.13049036 -0.02962957 -0.09476278
0.035677258 -0.117681034 0.0034366006 -0.07182316 0.028935239 0.08130248 0.116022415 -0.018837145
0.040020287 -0.040691886 -0.12509897 -0.104005046 0.04859463 0.12111564 0.024583364 -0.09132594
00000000: 78e4 a43c 50b7 ae3d 6868 a1bd 5766 0e3d
00000010: c3c6 263d 8876 c23d c818 df3c 1692 423d
00000020: 67d9 b6bd c9b8 febc da11 943d b248 bbbc
00000030: f19b a9bd 810c 9abd c0b6 0fbd 10d6 023e
00000040: 6640 2c3d eb42 f63d fedd 883d da7c b43c
00000050: 7776 b63d d120 5e3d ad3d 96bd 3190 4d3d
00000060: d78b b13d b818 c4bd 433f a9bd 7ca0 5a3c
00000070: 69de 963d e611 a33c 2b04 183e b6fc 9bbd
00000080: c025 ddbd 6e6d d13d 3ffd 84bd ec98 56bd
00000090: 68fd b6bd 31c5 253e bf1f c63d 312b 1abd
000000a0: 7e40 ef3d 1725 cfbd bf07 80bd 7dee 433d
000000b0: e7ac 683d 449f 05be b6b9 f2bc fd12 c2bd
000000c0: 5122 123d c102 f1bd 9738 613b 0518 93bd
000000d0: 9809 ed3c ea81 a63d 299d ed3d 5b50 9abc
000000e0: 50ec 233d 89ac 26bd f219 00be 9900 d5bd
000000f0: 2a0b 473d 7a0b f83d 0d63 c93c 1809 bbbd

fc1.weight f4 [64, 64]
0.1194461 -0.005840272 -0.11983635 -0.25067127 0.012297703 -0.07645876 -0.11919744 -0.08830002
-0.13042232 -0.0076847705 -0.1057516 -0.02088221 0.097964056 -0.24003406 0.07137869 0.07260041
0.06978998 0.10260263 0.0076715276 0.06304984 -0.12035882 -0.013369316 -0.023135304 0.022255637
-0.07115734 -0.017983405 -0.08471045 -0.00020067372 -0.13905944 -0.0107388655 -0.018917829 -0.09849109
0.07761951 0.024399245 -0.078332454 0.10530866 -0.10164902 0.1052928 -0.004482803 -0.050624143
-0.08995677 -0.014871908 0.04947384 -0.10865299 0.06966286 -0.024943624 0.08392397 -0.058952454
0.078609854 -0.037650473 -0.2046899 0.012328497 -0.10280654 0.034873646 0.032461025 -0.018077992
-0.09481777 0.21230324 0.032291573 -0.011635101 0.16522679 -0.019172207 -0.091988765 0.085556775
-0.06316932 0.021830758 -0.097737074 0.019532429 0.09886362 0.0012611729 0.041518226 -0.08693152
0.04204779 -0.040499628 0.096355505 -0.031573717 -0.09388502 0.15497589 0.022538887 -0.0037382422
0.13986935 0.09015268 0.045524165 -0.09854719 0.044944607 0.10968561 0.022561008 0.08318761
0.20955262 0.0043948614 -0.006961965 -0.040371098 0.059752062 0.17130649 0.06828902 0.13971448
-0.07573379 0.0041615856 0.06073487 -0.1360004 0.042207286 -0.0012547473 0.011990619 -0.077796705
-0.19850728 -0.04281277 0.07365494 -0.0021275315 -0.17164347 0.17046714 0.16581953 -0.0038929344
-0.066882715 0.11088554 0.017917795 0.15298524 0.04272768 -0.07327642 -0.01722757 -0.06141679
-0.19539556 -0.027772976 -0.12648845 -0.02212238 -0.16807361 -0.03582712 0.00083252287 -0.12535779
0.03728187 0.09675435 -0.10664498 -0.21269199 0.0901059 -0.12671874 -0.13325122 0.07615907
-0.070298344 0.16657047 0.06916298 0.017175425 -0.014090053 -0.1338987 0.12544353 0.0622381
-0.03156496 0.070332505 -0.16756807 0.042505767 0.014354505 -0.108789764 0.0921223 0.092266284
-0.026681045 -0.03783671 0.10274756 -0.042826463 -0.136844 -0.06856271 0.11295637 -0.07198339
-0.11214314 -0.03310319 0.10951641 -0.014759288 -0.11323453 0.13535029 -0.0026884486 -0.022783369
-0.29880562 0.031943146 -0.082777455 0.14986667 -0.09746753 0.09184578 0.076576345 0.05842309
-0.27308387 -0.0948298 -0.10582643 -0.06058112 0.06441957 -0.2028839 0.010838521 -0.08545944
-0.12524107 0.1656197 0.17533585 -0.15813437 -0.20967771 0.065285675 0.10371099 -0.052571848
0.07436824 -0.06387375 0.08638791 0.0727091 -0.0330175 0.046604063 -0.05392666 0.099484324
-0.05575644 -0.04837499 0.2724524 -0.12587145 -0.036946233 -0.042921774 -0.05941642 -0.07102683
-0.20101133 -0.0021867247 0.03279073 0.17118128 -0.046918318 -0.023153085 -0.015880704 0.09572361
0.11243233 -0.14131846 0.19818115 0.13853435 -0.02784136 0.11286861 -0.040272497 0.091726206
0.047361083 -0.03006394 -0.04711535 0.04505362 0.13512021 0.03514523 -0.0823535 -0.06417552
-0.050876755 0.019489564 0.07706026 -0.096994616 -0.11835238 0.10081505 -0.048839122 -0.06547297
0.028082468 0.14417875 -0.109329954 0.1103198 -0.05569216 0.15367629 0.020524079 0.06171499
-0.022557825 -0.10079158 -0.1873598 -0.042771947 -0.010020492 -0.15845847 -0.108569436 0.16469774
00000000: 28a0 f43d c15f bfbb c36c f5bd fc57 80be
00000010: 4e7c 493c 6996 9cbd ca1d f4bd a4d6 b4bd
00000020: 6e8d 05be 87d0 fbbb 4b94 d8bd 2b11 abbc
00000030: 61a1 c83d 7dcb 75be fe2e 923d 86af 943d
00000040: 0dee 8e3d 5421 d23d 7061 fb3b 4620 813d
00000050: af7e f6bd fa0a 5bbc 4086 bdbc 7451 b63c
00000060: f1ba 91bd ef51 93bc ac7c adbd f16b 52b9
00000070: 9965 0ebe 11f2 2fbc 90f9 9abc b2b5 c9bd
00000080: faf6 9e3d ede0 c73c c46c a0bd 11ac d73d
00000090: 5d2d d0bd c0a3 d73d 7ae4 92bb 435b 4fbd
000000a0: 413b b8bd 4ea9 73bc 15a5 4a3d 7585 debd
000000b0: 67ab 8e3d 9256 ccbc 55e0 ab3d 2178 71bd
000000c0: 34fe a03d 6237 1abd 3b9a 51be 77fd 493c
000000d0: 3c8c d2bd abd7 0e3d daf5 043d 4c18 94bc
000000e0: d22f c2bd 0566 593e 2b44 043d 27a1 3ebc
000000f0: 3631 293e 080f 9dbc 9b64 bcbd 6438 af3d
00000100: eb5e 81bd 6bd6 b23c 602a c8bd 7902 a03c
00000110: 0279 ca3d f14d a53a 040f 2a3d 2709 b2bd
00000120: 4e3a 2c3d f0e2 25bd 0956 c53d 7153 01bd
00000130: ca46 c0bd 00b2 1e3e 79a3 b83c 4cfd 74bb
00000140: e939 0f3e f8a1 b83d 8c77 3a3d 1cd3 c9bd
00000150: d617 383d d9a2 e03d ddd1 b83c 445e aa3d
00000160: f694 563e c502 903b 3221 e4bb 2a5c 25bd
00000170: 94be 743d f86a 2f3e 1ddb 8b3d 5011 0f3e
00000180: 511a 9bbd e95d 883b 21c5 783d b043 0bbe
00000190: 8ce1 2c3d 5576 a4ba 4d74 443c e153 9fbd
000001a0: 7e45 4bbe 715c 2fbd 67d8 963d 0e6e 0bbb
000001b0: 4ec3 2fbe f08e 2e3e 98cc 293e 9a20 7fbb
000001c0: cef9 88bd f517 e33d 57c8 923c 2aa8 1c3e
000001d0: 3803 2f3d f311 96bd d520 8dbc 2c90 7bbd
000001e0: c615 48be 2784 e3bc 3086 01be fe39 b5bc
000001f0: 7d1b 2cbe 75bf 12bd aa3d 5a3a cb5d 00be
00000200: e0b4 183d 2527 c63d af68 dabd eecb 59be
00000210: 7189 b83d 8fc2 01be 0273 08be 49f9 9b3d
00000220: 94f8 8fbd 7391 2a3e 52a5 8d3d 7ab3 8c3c
00000230: f7d9 66bc be1c 09be 4574 003e 61ed 7e3d
00000240: 424a 01bd 7d0a 903d f796 2bbe 871a 2e3d
00000250: 282f 6b3c 2bcd debd 9eaa bc3d 1bf6 bc3d
00000260: 3592 dabc abfa 1abd 506d d23d cd6a 2fbd
00000270: d520 0cbe 9b6a 8cbd ab55 e73d 076c 93bd
00000280: 4dab e5bd 3697 07bd 244a e03d f1d0 71bc
00000290: 81e7 e7bd 4499 0a3e af30 30bb 30a4 babc
000002a0: 0dfd 98be d1d6 023d 3a87 a9bd a676 193e
000002b0: 0e9d c7bd a419 bc3d 0fd4 9c3d 0d4d 6f3d
000002c0: a6d1 8bbe 2036 c2bd 87bb d8bd e923 78bd
000002d0: 68ee 833d ccc0 4fbe 0d94 313c 5c05 afbd
000002e0: 323f 00be 3698 293e 3e8b 333e faed 21be
000002f0: c1b5 56be 7fb4 853d 6d66 d43d 9455 57bd
00000300: 604e 983d 3ed0 82bd 25ec b03d 82e8 943d
00000310: 5c3d 07bd e7e3 3e3d 34e2 5cbd 70be cb3d
00000320: dd60 64bd da24 46bd e27e 8b3e 72e4 00be
00000330: ef54 17bd bece 2fbd a25e 73bd 8476 91bd
00000340: ead5 4dbe 274f 0fbb 934f 063d 254a 2f3e
00000350: 6c2d 40bd 8aab bdbc 4018 82bc bd0a c43d
00000360: ec42 e63d c9b5 10be 00f0 4a3e f3db 0d3e
00000370: 9013 e4bc a827 e73d c6f4 24bd f3da bb3d
00000380: b2fd 413d a748 f6bc 06fc 40bd 258a 383d
00000390: f45c 0a3e 72f4 0f3d f4a8 a8bd 746e 83bd
000003a0: 2564 50bd 94a8 9f3c c5d1 9d3d 1da5 c6bd
000003b0: bc62 f2bd 1f78 ce3d 880b 48bd b116 86bd
000003c0: 340d e63c 98a3 133e 62e8 dfbd 59ef e13d
000003d0: 761d 64bd 515d 1d3e 1d22 a83c dbc8 7c3d
000003e0: 30cb b8bc d16b cebd 3fdb 3fbe a331 2fbd
000003f0: fd2c 24bc f042 22be a759 debd 86a6 283e

fc1.bias f4 [64]
0.06298046 -0.016532185 -0.055987343 -0.06988597 0.113857895 0.11568778 0.043470487 0.15697995
0.04614848 0.07870369 -0.057603657 -0.024395388 -0.010898823 0.09381298 0.04895499 0.104374245
0.071258366 -0.049994968 0.014282288 -0.045847513 0.14433092 0.07357288 -0.026925229 -0.058899682
0.05546623 -0.038831845 -0.040558122 0.051479533 0.061283387 -0.10334521 0.17433831 0.13613988
0.096374 -0.014868471 0.11927381 0.08484916 0.029006885 -0.083088115 0.05872916 0.10957276
0.097920984 -0.14378294 -0.056922395 0.02434321 0.044759765 0.046757143 -0.05971381 0.1465537
0.10426814 0.047080684 0.10767772 0.04565722 0.0109885195 -0.02591708 0.16042046 0.001102835
-0.057339083 0.061316933 0.07248141 0.11904297 -0.10250237 0.16753456 -0.06631548 -0.061632045
00000000: e6fb 803d 816e 87bc fc52 65bd 6020 8fbd
00000010: 542e e93d b7ed ec3d 1c0e 323d 5abf 203e
00000020: 3006 3d3d 662f a13d d0f1 6bbd d6d8 c7bc
00000030: fa90 32bc 0521 c03d 0785 483d 2ac2 d53d
00000040: e8ef 913d 86c7 4cbd 4200 6a3c 9aca 3bbd
00000050: 7ccb 133e 61ad 963d 4c92 dcbc cb40 71bd
00000060: 8f30 633d 240e 1fbd 4620 26bd 34dc 523d
00000070: 4a04 7b3d a7a6 d3bd be85 323e 4168 0b3e
00000080: bb5f c53d e39a 73bc d445 f43d 65c5 ad3d
00000090: d99f ed3c 1a2a aabd fd8d 703d af67 e03d
000000a0: cc8a c83d d63b 13be 7527 69bd 696b c73c
000000b0: 0456 373d 6b84 3f3d 7896 74bd 2c12 163e
000000c0: 898a d53d add7 403d 2386 dc3d 1103 3b3d
000000d0: 3109 343c 0e50 d4bc 4345 243e 018d 903a
000000e0: 63dc 6abd 7727 7b3d 2271 943d cdcc f33d
000000f0: c3ec d1bd 2e8e 2b3e 69d0 87bd e271 7cbd

fc2.weight f4 [18, 64]
-0.34067145 0.1859875 -0.05197341 0.08533957 -0.072079524 0.12728293 0.038892362 -0.3978985
0.09764619 0.04032795 -0.10461116 0.045848988 -0.0021063462 -0.099838324 -0.0035140715 0.08725153
0.014340109 0.05531292 -0.08610946 -0.23020943 -0.05317807 0.05679244 0.056193966 -0.24905315
0.07337255 -0.22525379 -0.14498594 -0.19977005 -0.20025383 -0.33393142 0.04495466 -0.037942402
0.11498235 0.014107298 0.06505938 0.17151822 -0.062835865 -0.00619137 0.103551194 -0.19818795
0.13770995 -0.18493418 -0.17169097 0.049626634 0.11438147 -0.024280624 0.0057941433 0.1112929
0.10032976 -0.010571655 -0.16448508 -0.06497031 0.09717344 -0.037993286 0.07545882 -0.12370901
0.24502967 0.2328213 0.07342903 -0.111553855 0.034759846 -0.082546495 0.12610993 -0.048319153
0.07738168 -0.26297426 -0.27349523 0.10671672 -0.23533912 -0.098340645 -0.22745097 0.058114655
-0.29585367 -0.16052979 0.15170702 0.08300688 -0.25943732 -0.25272176 0.016466958 -0.0810323
-0.026418302 -0.21782915 -0.2254422 -0.20165505 0.08620391 -0.088495664 0.08471663 -0.11423862
-0.24449475 -0.24785276 -0.14721179 0.09138757 -0.10100917 0.1390377 -0.20042872 -0.18647635
0.03292039 0.07042991 0.10695627 -0.11534608 0.07003645 0.060200196 -0.21651004 0.034156244
-0.051561836 0.046596352 -0.066840924 0.07330331 0.011595294 0.09857587 0.100050956 -0.09044053
-0.33077168 0.053877566 -0.054744117 0.087483294 -0.28827074 -0.02150476 0.055600148 -0.4164729
-0.035383713 0.07818939 -0.2955403 0.087573275 -0.15175147 -0.39468145 -0.024663515 -0.049865905
0.024783699 0.018253626 0.17969443 0.019380344 0.100405805 0.040386744 -0.010524901 0.04871601
0.06446298 -0.08084033 -0.05250999 -0.14969401 0.0007643805 0.02910089 0.04941252 0.12397009
0.15460092 0.074710004 0.031283878 0.034166224 0.036419805 0.055721294 0.074354075 0.08876539
-0.08135908 0.09593953 0.003963842 -0.2841705 0.10721879 -0.19460864 -0.043802466 -0.1289958
-0.080826856 -0.15079716 -0.1060899 0.024622113 -0.21805535 -0.12073081 0.11508886 0.033048414
0.11399152 0.0451479 -0.03409008 -0.11277544 -0.0068169003 -0.19143349 -0.05970093 0.042772505
0.060133882 -0.00021341693 0.033633262 -0.006148871 0.008588164 0.05854938 0.0982867 -0.07179039
-0.028481835 0.08105992 0.06979755 -0.12023603 0.0063493606 0.011555841 -0.06552218 0.12191098
0.12591979 -0.059864383 0.07724466 -0.03080728 -0.078021616 -0.06572541 -0.027952373 -0.0047407923
0.099653296 -0.009073453 0.018689819 -0.040264953 -0.0021830744 0.15203972 -0.1812305 0.03758803
-0.059629425 -0.023377856 0.0880403 0.091460966 -0.07165307 -0.20941819 -0.13548386 0.014861652
-0.041663557 0.12179446 0.10944257 -0.07258573 0.13663577 0.006971666 -0.12695378 0.028064137
-0.15167366 -0.15424526 -0.12753338 -0.107688166 -0.08865833 -0.15263148 -0.0027332555 0.10883772
0.12470701 -0.105103634 -0.1422265 -0.14342089 -0.039361034 -0.09455435 -0.225327 0.09451942
-0.027158072 0.030189788 0.07954381 -0.0663528 -0.17596675 -0.27920145 0.11539695 0.009459259
-0.084185995 -0.03534611 -0.121605314 0.026838504 -0.04473859 0.04441496 -0.18806902 0.00839873
00000000: 7d6c aebe 8273 3e3e 12e2 54bd 83c6 ae3d
00000010: 6e9e 93bd 7556 023e 994d 1f3d 5ab9 cbbe
00000020: bafa c73d ec2e 253d 603e d6bd 26cc 3b3d
00000030: a00a 0abb 0978 ccbd 564c 66bb eeb0 b23d
00000040: c7f2 6a3c cd8f 623d 285a b0bd 05bc 6bbe
00000050: 3fd1 59bd 319f 683d a52b 663d ca07 7fbe
00000060: 5944 963d eea8 66be 3277 14be 8590 4cbe
00000070: 570f 4dbe 0ff9 aabe 6122 383d 7e69 1bbd
00000080: de7b eb3d 4c22 673c da3d 853d 79a2 2f3e
00000090: 17b0 80bd fae0 cabb a612 d43d c8f1 4abe
000000a0: d603 0d3e 635f 3dbe c2cf 2fbe 4c45 4b3d
000000b0: d540 ea3d 29e8 c6bc ccdc bd3b 88ed e33d
000000c0: b079 cd3d bc34 2dbc c76e 28be 270f 85bd
000000d0: de02 c73d d99e 1bbd 278a 9a3d 265b fdbd
000000e0: 0fe9 7a3e b568 6e3e f661 963d 5976 e4bd
000000f0: 5760 0e3d 230e a9bd f622 013e 4eea 45bd
00000100: 497a 9e3d 90a4 86be 9107 8cbe 4c8e da3d
00000110: bdfc 70be d266 c9bd e8e8 68be a209 6e3d
00000120: 227a 97be ec61 24be 1659 1b3e 83ff a93d
00000130: f8d4 84be bf64 81be b7e5 863c 43f4 a5bd
00000140: 326b d8bc 9b0e 5fbe 52da 66be a97e 4ebe
00000150: ad8b b03d 373d b5bd ea7f ad3d f0f5 e9bd
00000160: d55c 7abe 1dcd 7dbe b0be 16be 6829 bb3d
00000170: e5dd cebd e65f 0e3e 303d 4dbe a8f3 3ebe
00000180: 88d7 063d 8f3d 903d e40b db3d 913a ecbd
00000190: 456f 8f3d 7b94 763d cfb4 5dbe 6be7 0b3d
000001a0: 8132 53bd d1db 3e3d e5e3 88bd 0c20 963d
000001b0: 30fa 3d3c 25e2 c93d 84e7 cc3d e238 b9bd
000001c0: e85a a9be b9ae 5c3d 5e3b 60bd 712a b33d
000001d0: 3998 93be c02a b0bc fbbc 633d f03b d5be
000001e0: 83ee 10bd c221 a03d 0f51 97be 9e59 b33d
000001f0: bd64 1bbe b013 cabe 240b cabc 3140 4cbd
00000200: 2f07 cb3c a188 953c d101 383e 87c3 9e3c
00000210: 8fa1 cd3d 926c 253d a270 2cbc 708a 473d
00000220: 2b05 843d 9d8f a5bd b714 57bd 6349 19be
00000230: b560 483a fd64 ee3c c864 4a3d 08e4 fd3d
00000240: b44f 1e3e 8f01 993d 8623 003d e2f1 0b3d
00000250: ef2c 153d 033c 643d f346 983d a1ca b53d
00000260: 979f a6bd f27b c43d 1ee3 813b cc7e 91be
00000270: 8695 db3d 7d47 47be 376a 33bd 7a17 04be
00000280: 8d88 a5bd 926a 1abe a945 d9bd 50b4 c93c
00000290: e749 5fbe b741 f7bd b5b3 eb3d c65d 073d
000002a0: 6374 e93d 01ed 383d 0aa2 0bbd cff6 e6bd
000002b0: 4e60 dfbb 2407 44be f688 74bd 3932 2f3d
000002c0: f24e 763d acc8 5fb9 08c3 093d 787c c9bb
000002d0: 5fb5 0c3c 7ad1 6f3d 8a4a c93d d706 93bd
000002e0: bd52 e9bc be02 a63d 05f2 8e3d 4f3e f6bd
000002f0: 4c0e d03b b654 3d3c 7e30 86bd 77ac f93d
00000300: 1ef1 003e 5b34 75bd 7332 9e3d 8d5f fcbc
00000310: ccc9 9fbd 0b9b 86bd 60fc e4bc a658 9bbb
00000320: 0717 cc3d d2a8 14bc 641b 993c ddec 24bd
00000330: e911 0fbb 4db0 1b3e 7d94 39be e8f5 193d
00000340: fc3d 74bd eb82 bfbc 794e b43d e34f bb3d
00000350: d8be 92bd b971 56be 48bc 0abe 497e 733c
00000360: 68a7 2abd 606f f93d 6d23 e03d d4a7 94bd
00000370: 3fea 0b3e 9372 e43b 2c00 02be c3e6 e53c
00000380: 5750 1bbe 78f2 1dbe 1c98 02be 9d8b dcbd
00000390: 8092 b5bd 6d4b 1cbe 6b20 33bb 4fe6 de3d
000003a0: 6466 ff3d 9340 d7bd d3a3 11be eddc 12be
000003b0: 0939 21bd b6a5 c1bd 1fbc 66be 6693 c13d
000003c0: 9b7a debc 9350 f73c dde7 a23d fae3 87bd
000003d0: a130 34be 7ef3 8ebe 3c55 ec3d 02fb 1a3c
000003e0: b569 acbd 15c7 10bd 350c f9bd 6cdc db3c
000003f0: d03f 37bd 76ec 353d 2a95 40be d49a 093c

fc2.bias f4 [18]
0.0846006 -0.04694427 -0.11310882 0.00024194452 -0.05705855 0.028531484 -0.067258604 0.07400316
-0.0121368775 -0.061155774 -0.024085574 0.041262735 -0.09518959 0.10333617 -0.24848409 0.04307224
0.19003107 0.071007855
00000000: 1443 ad3d a348 40bd 99a5 e7bd 7db2 7d39
00000010: 3ab6 69bd dcba e93c e1be 89bd f88e 973d
00000020: c1d9 46bc 7a7e 7abd 1c4f c5bc 1d03 293d
00000030: c2f2 c2bd eaa1 d33d 9d72 7ebe 846c 303d
00000040: 8197 423e 916c 913d
