NLP with Pytorch/model_storage/ch7/model2_conditioned_surname_generation/model.pth (torch, 52887 bytes, 8 tensors)

char_emb.weight f4 [88, 32]
000000 00 00 00 00 00 00 00 00 00 00 00 00 00 00 00 00
       0.0 0.0 0.0 0.0
000010 00 00 00 00 00 00 00 00 00 00 00 00 00 00 00 00
       0.0 0.0 0.0 0.0
000020 00 00 00 00 00 00 00 00 00 00 00 00 00 00 00 00
       0.0 0.0 0.0 0.0
000030 00 00 00 00 00 00 00 00 00 00 00 00 00 00 00 00
       0.0 0.0 0.0 0.0
000040 00 00 00 00 00 00 00 00 00 00 00 00 00 00 00 00
       0.0 0.0 0.0 0.0
000050 00 00 00 00 00 00 00 00 00 00 00 00 00 00 00 00
       0.0 0.0 0.0 0.0
000060 00 00 00 00 00 00 00 00 00 00 00 00 00 00 00 00
       0.0 0.0 0.0 0.0
000070 00 00 00 00 00 00 00 00 00 00 00 00 00 00 00 00
       0.0 0.0 0.0 0.0
000080 a7 c0 29 bf 26 a7 80 be 6d 4c 81 3f 81 ed f8 3d
       -0.6630959 -0.25127524 1.0101448 0.12154675
000090 70 33 22 3e 87 27 91 3f eb b2 93 bf 78 c7 98 be
       0.15839934 1.1340188 -1.1538976 -0.29839683
0000a0 ea ed 01 bf 19 86 6c bf ee f4 0b 3f df 54 bf bf
       -0.50753653 -0.92392117 0.5467061 -1.4947776
0000b0 dd 54 9a bf c9 62 12 3f 39 ec 18 bf bb 94 31 bf
       -1.2057148 0.57181984 -0.5973545 -0.6936757
0000c0 03 a1 d2 3f f5 90 4d bf 08 fb ac 3f 4d 45 8d be
       1.6455387 -0.8029931 1.3514109 -0.27591935
0000d0 07 63 c1 bf 9a b4 06 40 52 d4 30 40 45 8e df bf
       -1.5108346 2.104773 2.762959 -1.7465292
0000e0 b5 cd b9 3f f5 50 c1 bf 22 37 52 3f 99 9a 58 be
       1.4515902 -1.5102831 0.82115376 -0.21152724
0000f0 e1 65 47 3f 27 42 c4 3f d8 0b ce 3f eb 73 ce be
       0.7788983 1.5332688 1.6097364 -0.40322813
000100 0f 5c 69 bf ba b7 23 3f da 90 76 3d 45 d5 28 be
       -0.91156095 0.6395222 0.060196735 -0.16487606
000110 ea 67 2b bf 3c b5 12 3f da 3e be bd bd b8 bb bf
       -0.66955435 0.5730779 -0.09289332 -1.4665753
000120 3f d5 13 40 b1 97 1b bf c3 af 8a 3c c3 bb 68 3f
       2.3098905 -0.6077834 0.016929513 0.909115
000130 15 ad bd bf 70 5d 9c 3f 29 2d 37 3e f0 be f5 3e
       -1.4818445 1.2216015 0.17888321 0.47997236
000140 9b fe 2d 40 47 58 b1 bf 96 e8 a9 3f b5 d6 2c 3f
       2.718665 -1.3855065 1.3274105 0.67515117
000150 96 83 ed bf a0 56 b7 bf d7 67 60 3f ab ed 05 bc
       -1.8555782 -1.4323311 0.8765845 -0.00817434
000160 6c 54 01 3f a3 1e 23 bf be c0 32 3f 0d b1 36 bf
       0.5051944 -0.6371862 0.6982535 -0.7136391
000170 a9 c8 a8 be 70 fb f3 be a8 f3 ae bf 15 66 4b bf
       -0.32965592 -0.4765277 -1.3668108 -0.7945264
000180 31 5e d5 bf 08 bd ae bf 26 7f 29 be 1e 56 76 3f
       -1.666937 -1.3651438 -0.1655241 0.96225154
000190 69 39 01 3d 43 ed 3d bf e0 77 98 be 03 9f 8c 3c
       0.03154889 -0.7419016 -0.29778957 0.017165666
0001a0 2f 7a 35 be bf a1 08 be 94 81 96 3e 2d 46 b1 3f
       -0.1772239 -0.13342951 0.29395735 1.3849541
0001b0 1c a1 f7 3d a4 ac 22 40 30 f5 23 bf 60 ac fc bf
       0.12091276 2.5417871 -0.64046 -1.9740105
0001c0 4d bd a8 be d7 65 02 3c b9 1d 6d 3f 1e 39 f1 bf
       -0.32956925 0.007958851 0.9262348 -1.8845556
0001d0 fb f7 2a 3e 8c d0 ea 3e 0e 13 e2 bf 31 03 16 3f
       0.1669616 0.45862234 -1.7662065 0.5859862
0001e0 cd 21 e0 3f d0 ba 8f 3e 90 36 9f 3e b0 5c 27 bf
       1.7510315 0.28072214 0.31096315 -0.65375805
0001f0 33 5a 28 bf ce 0b a3 3e b3 b1 0c bf a5 82 bb bf
       -0.65762633 0.31844944 -0.5495865 -1.4649245
000200 59 15 21 c0 e6 98 1c 40 0e 7a 8e 3f 63 04 9f be
       -2.516928 2.4468322 1.1130998 -0.31058034
000210 3c 0f 5d 3f dd ed a6 3f f8 4e c2 be 71 40 8b bf
       0.8635137 1.304134 -0.37950873 -1.0879041
000220 44 fe 79 3d ed 7d a5 bd 69 5f 67 3f db 8e fe 3e
       0.061033502 -0.08080659 0.9037996 0.49718365
000230 f6 ab 4f 3e 0c a5 68 bf 31 46 bf 3e 7e 3a 28 3f
       0.20280442 -0.9087684 0.3735824 0.6571425
000240 5d 64 0c 40 ec 4a 90 3f f9 b9 c9 bf c2 b5 c8 be
       2.1936257 1.1272864 -1.5759879 -0.3920117
000250 fa af 83 be 67 53 2d bf 4f aa 85 bf 49 30 6b 3f
       -0.25720197 -0.67705387 -1.0442599 0.9187055
000260 98 d6 97 bf fd 7b 2e 3f be 21 78 3f ac e8 b6 be
       -1.1862364 0.6815794 0.96926486 -0.3572439
000270 0f 14 a6 bf 32 d1 d0 be 3f 64 ce 3f 47 ad 56 be
       -1.2974871 -0.40784603 1.6124343 -0.20964538
000280 3e fc a0 bf 2d f9 c1 3e 0d 36 4c be d6 0a 11 40
       -1.2576978 0.3788542 -0.19942494 2.2662864
000290 dd f9 4b c0 3c ff c2 3d fb 90 54 bf a4 53 0d bf
       -3.1871254 0.09521338 -0.8303372 -0.5520575
0002a0 50 b9 95 3e e7 59 0b 40 6e 37 f7 be 97 85 41 be
       0.29242945 2.1773622 -0.48284477 -0.18898617
0002b0 d4 db 9b bf db 6f b4 be bd 61 ff bf 38 f2 c1 bf
       -1.2176461 -0.3524159 -1.9951702 -1.5152044
0002c0 ae 46 14 bf c9 de 7c bf ae ac f2 3d 66 ca 83 3e
       -0.5792035 -0.98777443 0.11849342 0.25740355
0002d0 18 29 df 3e cc 99 12 3f 6d e1 ed bf c4 9b 6b 3f
       0.4358604 0.57265925 -1.858442 0.92034554
0002e0 0e 36 92 3f b2 d3 9d 3f 87 31 1e 3f f3 ac b9 bf
       1.1422746 1.2330229 0.6179432 -1.4505905
0002f0 1b 65 29 bf 7a 99 0f 40 d6 9b fa 3e 9c c0 ca 3f
       -0.661699 2.2437425 0.48947018 1.584003
000300 26 a1 55 3e e4 5e f8 be 6e ba f5 3f d2 6c c6 3f
       0.20862255 -0.48509896 1.9197519 1.5501959
000310 0a 16 61 3f ed d7 09 bf 08 f4 a2 be 97 c7 40 3f
       0.87924254 -0.538451 -0.31826806 0.7530455
000320 9e ca 2d 3e f1 3d eb bf 92 63 a7 3f 47 bf 93 3e
       0.16971824 -1.8378278 1.3077261 0.2885687
000330 d1 8a 98 bf 3a 55 86 bf 37 33 94 be 26 f4 87 3e
       -1.1917363 -1.0494759 -0.28945324 0.26553458
000340 2f 9b aa 3e ea 90 f1 be dc a5 b2 be 48 fd 0f bf
       0.3332152 -0.47180873 -0.34892166 -0.5624585
000350 6f fd 6b 3f 95 92 70 3f 6b 09 9d 3f 89 0b 35 3f
       0.92183584 0.93973666 1.2268499 0.70720726
000360 7f 52 1c 3e 84 e6 89 3f bc eb e4 be b4 28 18 bf
       0.15265845 1.0773473 -0.447111 -0.5943711
000370 d8 6b 86 be 81 d9 0a 3e dc f2 06 bf 86 ed 38 be
       -0.26254153 0.13559534 -0.52714324 -0.18059358
000380 72 84 53 bf 1b cb 71 3c 30 af 21 be 6e ea ce be
       -0.8262397 0.014757897 -0.15789485 -0.4041323
000390 7e e5 bb be 4d 0f bf 3e 49 e4 3c be d4 f0 2c bf
       -0.36698526 0.3731636 -0.18446459 -0.67554975
0003a0 30 7b 74 3f 17 e9 cf bf 75 c7 61 3f b7 6c 09 c0
       0.9550047 -1.6243008 0.8819497 -2.1472604
0003b0 de cd 8b bf 49 fa 08 be 87 e7 1d bf 43 5b 2f bf
       -1.0922201 -0.13376726 -0.6168141 -0.6849863
0003c0 d8 8c ac 3f c6 5e d1 bd 0b 7b 5e bf cc 2d 7e bf
       1.3480482 -0.10223155 -0.869065 -0.9928863
0003d0 84 62 46 3e b9 f7 f6 be 16 ac 10 be 06 c0 a0 bf
       0.19373518 -0.48235872 -0.14128146 -1.2558601
0003e0 c5 77 17 bf 60 d4 a0 3e de d5 8d bf 7d 05 a0 bf
       -0.5916713 0.3141203 -1.1080892 -1.2501675
0003f0 eb 4e 8d 3f bf 30 e8 bf 81 66 d9 be 37 5c b7 3f
       1.1039709 -1.8139876 -0.42461017 1.4325017

nation_emb.weight f4 [18, 32]
000000 f3 6e 54 bf a9 15 5c bf 09 b8 74 be 4e 1e 36 3f
       -0.82981795 -0.8597055 -0.23898329 0.7113999
000010 07 29 dd bf 0c 93 a6 3e 41 dd b9 3f f9 37 31 bf
       -1.7278146 0.32534063 1.4520646 -0.6922603
000020 18 3f a8 3f e7 ba fd 3e 5b 08 83 3f 32 09 89 be
       1.3144255 0.49556658 1.0236925 -0.26764828
000030 7d 92 cb 3d e0 1d 45 bf d8 7d a7 3c d7 8c 2f bf
       0.0994005 -0.7699871 0.02044575 -0.6857428
000040 9e 6d d8 3f 01 e5 22 40 3f 6b f2 3f 0c 9a 82 be
       1.6908453 2.5452273 1.8938979 -0.25508153
000050 d6 f3 cf 3e 79 63 23 3f 90 be 02 c0 c6 49 7a bf
       0.4061572 0.6382366 -2.042881 -0.9776882
000060 a2 ab 13 40 6d cb 51 40 e5 51 0f bf 13 11 a1 bf
       2.3073506 3.2780411 -0.55984336 -1.2583336
000070 b8 eb 29 c0 0d 8d 83 3f 88 68 0c be d5 13 0c 3f
       -2.6550121 1.027742 -0.1371175 0.5471776
000080 37 68 67 bf 0f f8 0b 40 c4 af ac bf 84 cb cb 3e
       -0.90393394 2.1870153 -1.349114 0.39803708
000090 9d d2 38 3f ca 42 c1 3f 68 75 66 bf 09 b1 33 40
       0.7219637 1.5098507 -0.900229 2.8076804
0000a0 7b 01 01 bf 82 0c 48 bf 30 3d 96 bf d3 23 70 bf
       -0.50392884 -0.78144085 -1.1737423 -0.93804663
0000b0 65 2b 96 3f 35 3d da 3f bc ac bf be d7 76 ed 3d
       1.1731993 1.7049929 -0.37436473 0.115949325
0000c0 6e 45 9b 3f df c3 ed 3f 9e 62 fb be 59 b7 64 bd
       1.2130563 1.85754 -0.49098676 -0.055838916
0000d0 c0 19 10 3f 2b 73 d2 3e 79 bf aa 3f 79 83 8d bf
       0.5628929 0.4110349 1.3339683 -1.1055747
0000e0 d4 93 18 40 52 ca 22 3e 80 a4 c0 3f 8d 34 1e 3e
       2.3840227 0.15897492 1.5050201 0.15449734
0000f0 9d 2e e7 bf a0 d0 66 bf ce 62 0c 40 f4 25 2f 3f
       -1.80611 -0.90162086 2.1935306 0.68417287
000100 8b 16 68 bf 86 0b b7 3f f1 73 cc bf 0c fa 05 c0
       -0.906594 1.4300392 -1.5972883 -2.0933867
000110 f1 1c 3b bf 5a 9f 65 3f aa ba 17 40 b2 1c 04 3f
       -0.73091036 0.89696276 2.370768 0.51606286
000120 19 84 bd bf c4 74 ba be 89 59 de 3f 7b be cb 3f
       -1.4805938 -0.3641721 1.7371074 1.5917505
000130 53 08 8f be 4f 59 ce 3e 16 08 27 be 47 65 2d bf
       -0.27936038 0.40302512 -0.16311678 -0.6773266
000140 52 65 be 3f 48 fe 4f 3f 96 10 9c 3f 4d 03 99 3f
       1.487467 0.8124738 1.2192562 1.1954132
000150 2d 2a eb bf 95 7c c9 bf 75 16 2d bf e4 83 66 be
       -1.8372246 -1.5741144 -0.6761239 -0.2251125
000160 b3 93 7e 3f 4c c2 6a bf cb b1 b9 bf e5 4d 87 3f
       0.9944412 -0.91702724 -1.4507383 1.0570647
000170 fa b4 43 bd bc 1b 62 3f 87 6c e7 3f cc a6 f8 3d
       -0.047780015 0.8832357 1.8079995 0.12141189
000180 ff d9 de bf 02 bb 1c be 42 31 a2 3b a1 7c df 3f
       -1.7410277 -0.15305713 0.0049497196 1.7459909
000190 fd 45 26 3e bf 17 5a bc 33 b5 fc 3e 80 3c 61 3f
       0.16237636 -0.013311326 0.49356994 0.8798294
0001a0 74 01 ae be 94 99 69 bf 3c 51 0e 40 38 fb e5 3f
       -0.33985484 -0.91249967 2.2237082 1.7967291
0001b0 e8 6f aa 3f 9e 3d 6f 3f 8d 71 b7 3e 06 ef b9 be
       1.3315401 0.93453395 0.3582882 -0.36315173
0001c0 cf cc 19 bf 62 92 ff be d2 4d ca be 65 7e 3a bf
       -0.6007814 -0.4991637 -0.39512497 -0.7284911
0001d0 ec d5 77 be 82 5c cb bf c4 a9 0c c0 06 4b 1c 3f
       -0.24202698 -1.5887606 -2.1978617 0.61051977
0001e0 fb 37 15 bf 48 20 e0 bb dd f5 43 bf 99 a3 7c 3e
       -0.58288544 -0.0068397857 -0.7654703 0.24671783
0001f0 fc 40 42 40 19 58 0a bf 4d 2d 22 3e ef ab b0 3f
       3.0352163 -0.54040676 0.15837593 1.380247
000200 f5 f9 5b 3f e7 e9 8d 3f 6c 2c 70 3f 92 b4 1f 3f
       0.8592828 1.1087006 0.9381778 0.62384903
000210 54 82 9c 3f d2 18 05 3f 01 1b ad be b7 cd 10 c0
       1.2227273 0.51991 -0.33809665 -2.2625558
000220 48 b3 d4 3f fa 17 a2 bf 59 d9 81 3f f4 02 10 40
       1.6617212 -1.2663567 1.0144454 2.2501802
000230 55 9a bb 3e 1c ec 1e be 6c 73 93 3f e0 c5 63 3e
       0.36641183 -0.15519756 1.1519599 0.22243452
000240 80 d4 89 3e 81 19 20 40 8c 31 a6 3f 2d f4 9e 3f
       0.26919937 2.5015566 1.298387 1.2418267
000250 a5 57 bb bd 15 e7 34 3f 95 1f 86 be 3c a0 a5 3f
       -0.09147576 0.70665103 -0.2619597 1.2939525
000260 0f fc 2d bf 79 f4 86 3f f2 9d 17 be 16 74 60 bf
       -0.67962736 1.0543357 -0.14806345 -0.87677133
000270 1e 32 86 3f 5a 6f 50 3f 0c 10 29 3f 50 ec c0 3e
       1.0484045 0.8141991 0.6604011 0.37680292
000280 da ee ba 3f a3 16 29 3f 79 d7 b3 be 6b 2c 50 bf
       1.4604142 0.66050166 -0.3512533 -0.81317776
000290 31 b7 eb 3f 0e b2 3a bf 65 98 33 bf 9b ad 39 c0
       1.841528 -0.7292794 -0.7015441 -2.901221
0002a0 94 5a fc be ed 75 6f 3d bc 8b 07 3f 6a b5 36 3c
       -0.49287856 0.058462072 0.5294759 0.011151651
0002b0 9c 71 91 bf 4b ff 31 3f 49 70 8c 3f 17 c4 bc 3e
       -1.1362796 0.6953017 1.0971767 0.36868355
0002c0 38 28 4b c0 ca de 15 40 08 4f aa be 76 2f b5 be
       -3.1743298 2.341723 -0.3326342 -0.35387772
0002d0 7a 6d 2d be e3 43 6c bf 74 40 36 be 56 1e 9c bf
       -0.16936293 -0.92291087 -0.17798024 -1.2196758
0002e0 03 f3 82 be dd 02 dd 3e 0f e6 c8 be 8b b9 37 3e
       -0.25576028 0.43166247 -0.3923802 0.17941873
0002f0 67 5a ad bf af 27 35 bf 41 69 9e bf c2 cb b5 3f
       -1.3543214 -0.7076368 -1.2375871 1.4202807
000300 50 ab 45 3f 5e fe 80 bf 30 92 b9 bf 7f 00 c0 bf
       0.7721453 -1.0077627 -1.4497738 -1.5000151
000310 a5 65 b6 3d c4 88 4e 3d 17 fa 88 bf 10 c4 b6 bd
       0.08906106 0.0504234 -1.0701321 -0.08924115
000320 49 24 f1 be 1d 70 f0 3f 81 a1 20 3f 43 69 41 c0
       -0.47097996 1.8784214 0.62746435 -3.0220497
000330 c7 37 17 3f af ef 9b 3f c9 b6 d7 bd 5f 64 06 c0
       0.59069484 1.2182521 -0.105329104 -2.0998762
000340 f7 7b de 3e d4 b0 6c be 9a 70 d7 3e ee 85 a8 be
       0.43453953 -0.2311433 0.42078096 -0.3291468
000350 7c 07 b4 3f 07 0f 29 3f cd 4a 82 bf 79 1b 27 3f
       1.4064784 0.66038555 -1.0179077 0.65276295
000360 27 e4 7b bf ec 0e 88 bd 3c 4e 48 bf f6 d3 39 bf
       -0.9839501 -0.06643471 -0.78244376 -0.7258905
000370 c8 63 a3 3f f7 16 df 3f 69 9d fe 3e 6c 8f 60 3f
       1.2764826 1.7428883 0.4972947 0.87718844
000380 2d 47 c2 3f 30 86 45 bf 35 14 c5 bf fd 94 a8 3d
       1.5177971 -0.7715788 -1.5396792 0.08231542
000390 d9 ea 29 bf e6 df 36 3f 75 f6 5a 3f 78 d2 2b 40
       -0.66373974 0.7143539 0.85532314 2.684721
0003a0 7e 99 bc bf dc 2e a1 3f 7d 56 89 bf 01 90 87 bf
       -1.4734342 1.2592425 -1.0729519 -1.0590822
0003b0 65 2b 31 bf 7c 85 b3 bf 02 84 50 3f 96 e4 9f 3f
       -0.6920684 -1.4025111 0.8145143 1.2491634
0003c0 56 97 d9 3d 15 94 1a bf 7b 67 91 bf 5b b8 20 bf
       0.10624568 -0.60382205 -1.1359705 -0.62781304
0003d0 ac bf ba be 33 36 1d 3f 3d cc cf 3f 8b b2 ff 3f
       -0.3647436 0.61410826 1.6234204 1.9976362
0003e0 94 3e 8b 3f f2 17 87 3e c7 10 93 bf 72 7e b8 3f
       1.0878472 0.26385456 -1.1489495 1.4413588
0003f0 39 61 8a 3f f3 1d 84 3f 6d 43 47 3f 6b 57 30 3e
       1.081092 1.032164 0.7783726 0.17220847

rnn.weight_ih_l0 f4 [96, 32]
000000 be c5 e9 bb 85 01 11 be 6f 9f 0a 3e d0 6a bf 3e
       -0.0071341684 -0.14160736 0.13537382 0.3738618
000010 d8 37 2b 3e 23 c8 54 bd f1 8d 2d be b9 71 70 3d
       0.16720521 -0.051948678 -0.16948678 0.058702204
000020 b9 6f 9d 3d f5 77 93 bd c4 84 50 3d 65 f2 07 bb
       0.07687325 -0.07200614 0.050907865 -0.0020743844
000030 7f 5d 05 be c7 f1 fc be 70 35 87 bd b8 67 58 be
       -0.13023947 -0.4940321 -0.06601989 -0.21133316
000040 71 b6 1d be 19 a8 2a 3e c5 5b 0a be 83 ca 7d bd
       -0.15401627 0.16665687 -0.1351157 -0.06196071
000050 a7 13 35 bd 57 de 5f 3e 58 83 52 be af ee e7 bd
       -0.044208195 0.2186216 -0.20557916 -0.11324822
000060 e4 cd 82 3d c3 f2 f1 bd 1d 22 3c be 21 95 44 be
       0.06386927 -0.11813881 -0.18372388 -0.19197513
000070 92 2e 9a be 6a b6 63 3c 43 53 95 3e 8e 55 36 3d
       -0.30113655 0.013898471 0.29165086 0.044515185
000080 97 1c 00 bd e4 24 39 3e 24 ff 22 3e 4c 6d 62 3e
       -0.031277265 0.18080479 0.15917641 0.22112006
000090 41 c3 ac bd 39 d3 03 3e c8 cf 8a bd 72 34 47 3e
       -0.08435679 0.12873544 -0.067779124 0.194536
0000a0 71 73 3d bd f8 e0 39 be d3 31 4f be 08 26 7f bc
       -0.04625267 -0.18152225 -0.2023385 -0.015573032
0000b0 ee 72 27 3c 09 82 44 bb e1 b6 94 bd 82 48 81 be
       0.0102202725 -0.0029984734 -0.07261444 -0.25250632
0000c0 98 a6 f5 bd dc 8b 35 be 6b c0 20 bb ac 47 47 bd
       -0.11994666 -0.17729133 -0.0024528753 -0.048652336
0000d0 b8 af 8e bd a1 60 13 3e 90 91 96 3d bb cb b7 bc
       -0.069671094 0.1439233 0.073519826 -0.022436013
0000e0 7d fd 12 3e 0f 90 37 be db cf a2 be 28 8b 87 be
       0.1435451 -0.17926048 -0.31799206 -0.26473355
0000f0 ff 10 c5 be f9 a6 4d 3c db d6 ed 3d f5 22 8c 3e
       -0.3848953 0.012552016 0.11613246 0.2737042
000100 47 06 49 3c 05 df 54 be 00 77 9a 3d 6c 1c bb 3e
       0.012269563 -0.207882 0.07542229 0.36545122
000110 61 c9 2b 3e 6d 4e 63 3e 94 21 8e be d2 17 29 bd
       0.16776039 0.22197886 -0.27759993 -0.041282482
000120 fb ea a4 bd 02 c5 ae 3c da e9 a9 3e 98 4b 29 3e
       -0.080526315 0.021334175 0.33186227 0.16532743
000130 9e c9 dc 3c 8e fe 93 bd 79 5c 1e 3e 1d 38 e9 bd
       0.026951607 -0.07226287 0.15464963 -0.11387656
000140 6e 38 d1 3d b1 2b c0 3d 32 83 80 bd 23 ff f5 3d
       0.10215841 0.093833335 -0.062750235 0.12011554
000150 e6 6e 8e 3e 5b 0d de 3e 59 1d 98 bd b1 53 db 3e
       0.27818984 0.43369564 -0.074274726 0.4283729
000160 08 57 8f 3b 20 12 0c 3d 16 0f 8c 3e 9c f3 27 be
       0.0043743886 0.034196973 0.2735526 -0.16401523
000170 c6 54 9b be c9 99 35 3e 4d cc 83 3e dd 8d 3b 3e
       -0.30338115 0.17734446 0.25741807 0.18315835
000180 44 7e 6d 3e 59 78 91 3d c2 b3 82 3d 19 9a c8 bc
       0.23192698 0.071030326 0.06381942 -0.024487542
000190 0e 8a 96 3e 45 29 89 3d 28 3d a3 3d 26 ba 14 3e
       0.29402202 0.06697325 0.07970649 0.14524135
0001a0 cf 00 5b 3c d7 2b 01 be 68 83 b6 3c b7 e4 9f bc
       0.013366892 -0.1261438 0.022279456 -0.01951824
0001b0 a1 f9 80 bd a6 ec d4 3d 33 cc e5 bd bb 27 1d be
       -0.06297613 0.103966996 -0.112205885 -0.15347187
0001c0 a7 75 52 be a4 b1 aa 3e b2 3c be 3c 07 98 b4 be
       -0.20552693 0.33338654 0.023222301 -0.35272238
0001d0 c5 00 4b 3e 89 ac 35 bd 5e 72 82 bd b0 fe b6 3d
       0.19824512 -0.044353995 -0.0636947 0.089352965
0001e0 ec 4e 62 bc 8a 3e 48 bd aa 12 cb 3d 9f 79 6a be
       -0.013812762 -0.048887767 0.09915669 -0.22897957
0001f0 b5 e3 27 be 91 9a 9c bd 9a 04 24 3d a3 91 b9 bc
       -0.16395457 -0.07646669 0.04004345 -0.022652453
000200 a1 c8 9a be 0c ac a0 bd fd 57 1d 3d cc 68 8b bc
       -0.30231193 -0.07845315 0.03841399 -0.017017744
000210 95 ac dc bd b5 70 16 3d a1 84 1d 3e 53 b4 2b be
       -0.10775105 0.03672858 0.15382625 -0.16768007
000220 34 25 e8 3e a7 a0 a2 bd 4a ac c6 bd 4c 7e cf be
       0.45340884 -0.07940798 -0.0970083 -0.40526044
000230 4c 3e a3 be d4 af 83 3d f4 e5 d3 3d f8 36 42 be
       -0.31883466 0.06430021 0.103465945 -0.18966281
000240 b3 6a e1 3d e0 41 1b be 28 ff d5 bc 6e 38 0b 3e
       0.110066794 -0.15161848 -0.026122645 0.13595745
000250 3d d5 a0 be 2e c7 7b be b3 ad 7c be 2e b5 83 be
       -0.31412688 -0.245877 -0.24675636 -0.25724167
000260 83 2f ed 3d 21 77 6e 3d 38 0a 4d be ac 26 3f be
       0.11581328 0.05821908 -0.2002343 -0.18667096
000270 15 e7 91 be b4 0f 48 bd 99 5e 3c bd fe 7c 08 3e
       -0.28496614 -0.0488431 -0.045988653 0.1332893
000280 d4 63 c4 3d 84 ab 1c 3e 28 f1 1c 3e aa d3 f9 3d
       0.09589353 0.15299803 0.15326369 0.12198575
000290 1b 33 d6 3d c2 64 de 3d ee a3 7d be bb 56 8a 3e
       0.10458966 0.10859062 -0.24769565 0.27019295
0002a0 78 d5 5d 3d 87 04 b2 bd 41 81 72 3e 5e 89 5b 3c
       0.054158658 -0.0869227 0.23682119 0.01339945
0002b0 b0 7c ce bd df 32 52 be 33 5d 26 be 8e 8b 4d 3e
       -0.10082376 -0.20527218 -0.1624649 0.20072767
0002c0 80 b6 82 be 08 94 46 3d 4b 8f 7f be a6 c2 4b bc
       -0.2552986 0.048481017 -0.24957006 -0.0124365445
0002d0 f8 4d fa 3c 19 13 12 3e 56 0e 89 3d 2b f8 1c 3e
       0.030554757 0.14265098 0.066921875 0.15329044
0002e0 2d a4 38 be 4b 41 1f 3e f7 20 21 be 3c 76 23 bd
       -0.18031378 0.15552251 -0.15735231 -0.03990768
0002f0 b9 ef 08 3d 0c 2d 21 3e 5a c4 37 3e cb ba a1 3e
       0.033431742 0.1573984 0.17945996 0.31587824
000300 6f 7d b7 3e a5 4c 2d 3e 12 24 24 be 21 89 22 3e
       0.35837886 0.16923769 -0.16029385 0.15872623
000310 b0 8c 50 3e dc a0 83 3e 77 d5 7d 3d 4f 17 19 3e
       0.20366168 0.25708663 0.061971154 0.14950298
000320 71 80 3b bd 12 bf ac bc 35 4d 8d 3d b9 4f 46 be
       -0.04577679 -0.021087203 0.06899492 -0.1936635
000330 0a 7e c3 3d c2 48 86 bd 45 b0 e8 bd 41 ac d4 3d
       0.095455244 -0.06556846 -0.11361746 0.10384417
000340 5a f9 5e be c7 79 0b 3e 06 29 23 be fd 7e a9 be
       -0.21774808 0.13620673 -0.15933618 -0.33104697
000350 f2 ad 71 3d c3 fc 00 3e 1b ea 4e be 5a f6 34 be
       0.059003778 0.12596421 -0.20206492 -0.176721
000360 6a d1 99 be 75 d1 12 be 4b 6c a3 3c 8c 5b c8 bc
       -0.30042583 -0.14337714 0.019949099 -0.024457715
000370 00 01 84 be aa a1 d6 bd 60 0b b6 3d b6 09 ee bc
       -0.25782013 -0.10480054 0.08888888 -0.029057365
000380 12 29 d1 bd 21 61 8a bc 80 41 09 3e 18 ad 4a 3e
       -0.10212912 -0.016892018 0.13403893 0.19792593
000390 2f 9d 4e bd a2 bf 5d bd 8d 38 26 be b8 16 52 3e
       -0.05044287 -0.054137833 -0.1623251 0.20516479
0003a0 fb be 9d 3d da 76 7d 3a b2 4b 42 3d b2 9f 96 3d
       0.07702442 0.00096688943 0.04743547 0.07354678
0003b0 72 ea 49 bd 40 8e 49 be cb da 42 bd d8 e6 84 bc
       -0.04929585 -0.1968317 -0.04757194 -0.016223356
0003c0 07 96 97 3d 4e 1c 1c be ea cc 26 be 88 8e 73 bd
       0.07401662 -0.15245172 -0.16289106 -0.0594621
0003d0 55 8f 11 3e db 10 84 3c 6c f4 d6 3c 66 5d 0d 3e
       0.14214833 0.016121319 0.026239596 0.1380516
0003e0 48 9a a1 3d 0c 06 e5 bc 3e bd a2 bd 53 1b e5 bd
       0.07890755 -0.027956985 -0.07946251 -0.11186852
0003f0 45 89 aa be 63 3d 49 be 7f 13 d1 3c a8 2b b7 3d
       -0.33307853 -0.19652323 0.025521992 0.08943874

rnn.weight_hh_l0 f4 [96, 32]
000000 ec 44 e7 bc 9c 99 5a 3d b4 d9 86 3d 1c e6 ca be
       -0.028231107 0.05336915 0.06584492 -0.39628685
000010 d9 6f af 3e d5 06 3b 3d da 56 56 be 75 27 79 3e
       0.3426502 0.045660812 -0.20931569 0.24331458
000020 59 7a 58 3e 1f 1b b8 3e a4 cc d6 3e 22 98 58 3e
       0.21140422 0.35958192 0.41953003 0.21151784
000030 bf 52 8a 3e 80 03 51 be 30 52 7e be f6 3e 7c be
       0.27016255 -0.20411491 -0.2483604 -0.24633393
000040 eb 6c bb bc 63 44 13 be e1 cc b2 be db a4 d0 bd
       -0.022879085 -0.14381556 -0.34921935 -0.10187694
000050 51 e1 47 3e 54 9e f6 3c 5e 91 58 be 57 68 59 3e
       0.19519545 0.030104794 -0.21149203 0.21231209
000060 80 b3 a7 3d 51 ff 4b 3d 0f d8 27 bd 7b f2 ee 3e
       0.08188534 0.049804036 -0.040977534 0.46669373
000070 34 80 2f 3e 0c 70 3a bd 51 c1 4a 3e c0 d7 10 be
       0.1713875 -0.045517012 0.19800307 -0.14144802
000080 00 17 47 bd fc 8a 47 3e d5 b0 4a 3e 17 cc ce bc
       -0.04860592 0.19486612 0.19794019 -0.025243802
000090 ba ab a2 3e de 3d 84 bd af d1 88 be c9 30 8e 3d
       0.31771642 -0.06457113 -0.26722476 0.06942899
0000a0 84 df a9 3e 15 03 5d 3d 14 0d 9f 3d 7d 23 20 bd
       0.3317834 0.053958017 0.07766166 -0.039096344
0000b0 cc 92 27 3e 3d a6 f9 be 2b b4 15 3e 09 13 27 be
       0.16364592 -0.48759642 0.1461951 -0.16315855
0000c0 47 1d 2a 3e 68 47 02 3e 2a a8 0d be b7 f1 1c 3e
       0.16612731 0.12722552 -0.13833681 0.15326582
0000d0 33 83 d2 3d e3 8e 05 3e 88 7d e0 bd 52 84 16 3e
       0.102789305 0.13042788 -0.10961443 0.14698914
0000e0 c9 8c 06 bd 16 35 b8 3e 7c cd 0a bd 85 dc 52 3e
       -0.032849107 0.35978 -0.03388737 0.20591934
0000f0 11 ea 21 be 1e 66 f8 bd 03 61 a0 3e 8b 7c ee 3d
       -0.15811945 -0.12128852 0.31324014 0.116448484
000100 fc 04 86 be 63 92 08 3f 36 b9 e3 3d fb e2 4c be
       -0.26175678 0.5334837 0.111193106 -0.20008461
000110 14 39 ad 3d ae ae 9b bd d1 46 06 be 07 c0 9b 3d
       0.084581524 -0.07601677 -0.13112952 0.07604986
000120 2b 1b a3 3e 64 4c b5 be 4f c3 33 3e 1a d7 23 3e
       0.31856665 -0.35409844 0.17554973 0.16000023
000130 c4 38 9e bc 8f f6 80 3d 40 75 87 bd ac bf 0e be
       -0.019314177 0.06297027 -0.066141605 -0.13940305
000140 fa 39 17 bf 0b f0 0d 3e 61 28 39 be 64 b1 db 3e
       -0.5907284 0.138611 -0.1808181 0.42908776
000150 ce d3 a7 3e 56 3c 23 be 61 03 18 3e d5 2c 76 3d
       0.32778782 -0.15940985 0.14845039 0.06010135
000160 de 9d bc be ae 70 34 be f4 59 bc be e9 45 48 3f
       -0.36839193 -0.17621109 -0.3678738 0.78231674
000170 8f 98 1b be 62 7c ec bd 21 1a 98 3e 52 93 70 3c
       -0.15194915 -0.11547162 0.29707435 0.014683561
000180 3f fd 0c be a0 fc 73 3d ec 1f a6 3e 5d d4 4e be
       -0.1376848 0.059567094 0.3244623 -0.20198198
000190 a6 2a 62 3e 46 be 03 be 70 90 9c 3d 70 12 30 bd
       0.22086582 -0.12865552 0.07644737 -0.042986333
0001a0 40 56 e0 3d 08 98 33 3e 3e 2b 93 3e 0e 85 87 3e
       0.10953951 0.17538464 0.2874393 0.264687
0001b0 02 76 2c 3e 6e c4 20 bc b2 97 6d 3e b9 7c eb be
       0.16841891 -0.0098124575 0.23202398 -0.45993593
0001c0 ed c5 43 3e 2c eb 2e bd 3f 46 50 3e fc 15 35 3f
       0.19118471 -0.042704746 0.20339297 0.7073667
0001d0 6b 19 77 3e f5 68 db 3d 22 af dc 3e c4 1f 8d 3e
       0.2413079 0.10713378 0.43102366 0.27563298
0001e0 1b b0 43 bb bd 81 bd bb 95 7a c3 bd d4 91 ee 3e
       -0.0029859606 -0.0057832883 -0.09544865 0.46595633
0001f0 b1 99 1b 3e 98 00 0b 3e 99 1b 53 3e c9 d2 26 be
       0.15195347 0.13574445 0.20615996 -0.16291346
000200 cd 4e 03 be df 87 06 bc 9f 54 b8 3d a4 9c 58 bc
       -0.12823029 -0.008211105 0.09000515 -0.01322094
000210 e8 54 0e bb 25 9b 1a bd f7 ba 04 bd b5 fd 39 3d
       -0.0021718089 -0.037745614 -0.032404866 0.04540797
000220 fa f5 2a bd 76 ff 43 3e 64 25 89 bd 29 65 98 3e
       -0.041738488 0.1914042 -0.06696585 0.2976468
000230 f8 66 06 bd 07 20 24 be 51 ec f9 bd 81 0a 3c 3f
       -0.032813042 -0.16027842 -0.12203277 0.7345353
000240 75 88 94 3e 34 26 63 3e d5 13 44 be 1d ad 6e be
       0.29010358 0.22182542 -0.1914819 -0.23308225
000250 ca 59 fb bc 19 0e 21 bf 64 fa e4 bc ab 59 11 bd
       -0.030682463 -0.62912136 -0.027951427 -0.035485905
000260 29 01 b8 3d fd 17 c6 3d 49 7e 05 3d 11 22 9b be
       0.08984596 0.09672544 0.032591138 -0.30299428
000270 2d 92 2d 3f 90 f5 0f bb 0d dc 27 bb b3 73 76 3e
       0.6780117 -0.0021966435 -0.0025613338 0.24067573
000280 1e 3e 45 be f6 4f ea 3d 61 22 26 be 4c 4b d1 be
       -0.19261977 0.114410326 -0.16224052 -0.4087776
000290 5d b3 86 3e f4 ed af bd b2 c8 88 be 86 cc 21 3e
       0.26308718 -0.08590308 -0.26715618 0.15800676
0002a0 90 9b f6 3e 00 d6 bc bc a8 37 5d 3e 71 c8 12 bd
       0.4816556 -0.023051262 0.21603262 -0.035835687
0002b0 a5 d4 1e 3e 19 88 3c be 94 a2 08 bf b2 68 e7 bd
       0.15510805 -0.18411292 -0.53373075 -0.11299266
0002c0 f8 f3 d3 3d b0 c4 e4 3c 45 6a 0d bf b5 c1 71 3e
       0.10349268 0.02792582 -0.5524028 0.2360905
0002d0 c6 96 06 3e 2a 25 25 3e e1 8b c1 bd f6 b9 9e 3e
       0.13143453 0.16127458 -0.09450508 0.31001252
0002e0 a9 2c 77 3d e8 ab 2d 3e 0a 12 98 bd 78 67 a1 3e
       0.060345326 0.16960108 -0.07425316 0.31524253
0002f0 e4 f8 17 3e ac aa 1f bd c3 9b 61 3e f7 a2 0b 3d
       0.14841038 -0.038981125 0.22032075 0.034090962
000300 84 3b 08 bd 1f 0f be 3d c3 72 04 bc f0 95 62 be
       -0.033259884 0.09280228 -0.008084002 -0.22127509
000310 ff ac 0a 3e 41 6f 41 be 82 2d 73 3b db d3 0b be
       0.13542555 -0.18890096 0.0037105982 -0.13655035
000320 e1 42 46 3e ed c0 95 3e 09 f0 6f bd 0f 0e 4f 3e
       0.1936145 0.29248753 -0.058578525 0.20220207
000330 c8 6e 24 3c 8f 93 d9 bd e5 33 4f 3d 22 36 b2 be
       0.010036178 -0.10623848 0.0505866 -0.34806925
000340 7b e1 6f 3e 42 e4 b2 bd 6b fe 98 be 3c 45 4a 3f
       0.23425858 -0.08734943 -0.29881606 0.79011893
000350 d1 46 d6 3d 3b c1 8e 3e 4f 52 94 bd 16 1c 01 3e
       0.10462726 0.27881798 -0.072422616 0.1260837
000360 d1 f2 1d 3e d3 83 de 3d 18 a2 d1 3c 4d 48 de 3e
       0.15424658 0.10864987 0.025589988 0.43414536
000370 3a c9 09 3e e7 bc b6 3d dd 29 83 bb 72 06 0c bd
       0.13455668 0.08922749 -0.004002793 -0.034185834
000380 35 6a 3d 3e 7c d4 9d 3d 35 80 13 3e 05 44 b2 be
       0.18497546 0.07706544 0.14404376 -0.3481752
000390 e4 00 ab 3c f6 43 50 3d 90 06 a5 3d c2 bb a5 bd
       0.020874448 0.050846063 0.08057892 -0.080924526
0003a0 d1 1b 34 3e 7b 33 e5 3d 31 b2 c5 3e 42 c7 0c bd
       0.17588736 0.1119146 0.38612512 -0.034369715
0003b0 de c4 d5 bc 16 85 86 be af f7 ff 3b 53 15 07 be
       -0.02609485 -0.26273412 0.0078115086 -0.13191728
0003c0 76 45 5e be 54 8d 86 be ca 16 5a 3e fe 81 9a 3e
       -0.21706185 -0.262797 0.21297756 0.301773
0003d0 de c6 55 3e ad 12 9c 3e c8 24 ff bd 3e 1d c3 3e
       0.20876643 0.30482998 -0.12458187 0.38108248
0003e0 c6 e8 34 3e f5 94 60 3e 9e ff 35 be 13 9b 9a 3d
       0.17666921 0.21931823 -0.17773291 0.07549109
0003f0 de b3 ff bd 58 94 27 3e eb 54 82 3e f4 b5 33 be
       -0.12485479 0.16365182 0.25455412 -0.17549878

rnn.bias_ih_l0 f4 [96]
000000 e4 bf 02 3e cf 7a 50 3e 30 20 49 3e 4f c9 5d 3e
       0.12768513 0.20359348 0.19641185 0.21658824
000010 48 b3 45 3e 86 01 65 3e b9 92 30 3e 4f d2 ad 3e
       0.19306672 0.22363862 0.1724347 0.33949515
000020 ec 8f 26 3e 2c 41 cc 3d 68 f7 8a 3e 55 15 bb 3c
       0.1626584 0.09973368 0.2714188 0.02283732
000030 7b 4c 99 bc 9b 13 bb 3c 3d 46 d4 bd 0b 31 7b 3d
       -0.018713227 0.022836497 -0.103649594 0.061326068
000040 7d d2 06 3e 80 e5 13 3e 48 64 ec 3d 8d dd b5 3e
       0.13166232 0.14443016 0.11542565 0.35520592
000050 5d ef 16 3e a2 83 d5 3d 6e 74 35 bd da 37 7a 3d
       0.14739747 0.104254976 -0.04430049 0.06108842
000060 75 4c d4 3d 10 ad 5d bd 47 39 44 3e 77 42 03 be
       0.103661455 -0.054120123 0.19162475 -0.12818323
000070 b3 10 02 3e 2a ac 6a 3d 14 91 45 3e e7 36 aa 3e
       0.12701683 0.057293095 0.19293624 0.33245012
000080 52 82 e9 be 89 d8 60 bd 3a a6 1d be 8a 9d d2 bc
       -0.4560724 -0.054894004 -0.15395442 -0.025709886
000090 32 05 ab be ff 28 91 be f0 8b 8d be 08 96 ab 3c
       -0.334024 -0.2835159 -0.27645826 0.020945564
0000a0 99 04 66 be bd e5 a2 bd 5b 6f 40 be 65 1b 2a be
       -0.22462691 -0.07953975 -0.18792479 -0.16612013
0000b0 ff 31 36 be 52 b6 3a be f3 30 68 be e9 f8 b3 3e
       -0.1779251 -0.18233612 -0.22674923 0.3515084
0000c0 ed ff 96 bc d8 10 a1 be af aa 54 be b4 35 8e 3e
       -0.018432582 -0.31458163 -0.20768236 0.27775347
0000d0 59 01 1c be 37 3f 8a be 08 a3 9e 3e 22 d1 da be
       -0.15234889 -0.27001354 0.30983758 -0.4273768
0000e0 96 4f 60 bd 24 19 f9 3d 12 53 9b be e8 28 22 3e
       -0.0547634 0.12162998 -0.30336815 0.15835917
0000f0 4e 52 f0 3d 2e c6 9d be 35 b6 25 bd fe a6 6b be
       0.117344484 -0.30815262 -0.04045697 -0.23012921
000100 12 06 42 3e af 22 c9 3d 86 dc 1c 3e 83 8e be bd
       0.18947628 0.098210685 0.15318498 -0.09304526
000110 73 f9 a4 be 5c 7a 09 be 1a ad a6 bd b8 06 0c 3c
       -0.32221565 -0.13425583 -0.08138485 0.008546524
000120 76 94 9a 3d ba 37 d7 bd 2c ec 62 3e 7b 3a 22 be
       0.07547848 -0.10508676 0.22160405 -0.15842621
000130 c2 2b a1 bc b6 ef c2 bd 54 ba 04 be 3b 0a 81 bd
       -0.019674186 -0.095183775 -0.12961704 -0.063007794
000140 f1 3d ee 3d 75 32 3e bd 1f 3d 0d be 94 08 b5 3d
       0.11632908 -0.04643484 -0.13792847 0.08839527
000150 f3 01 ac 3d 9b 47 30 bd 32 72 22 be cc 73 bf 3c
       0.08398809 -0.04303704 -0.15863875 0.023370646
000160 b7 80 97 bd 15 60 05 3d 90 8d 12 bd 89 f3 f8 3d
       -0.07397597 0.032562334 -0.035779536 0.12155826
000170 4b d8 9a bb 9b 3a a3 3d a5 0a f3 3d 9c ed 1c be
       -0.004725491 0.079701625 0.11867265 -0.15325016

rnn.bias_hh_l0 f4 [96]
000000 21 d6 0b 3e 47 58 17 3e 2f 5f 0a 3e 56 51 0d 3e
       0.13655902 0.14779769 0.13512872 0.13800558
000010 d6 b6 c6 3d 87 43 39 3d 94 ba 29 3e c6 c2 4f 3e
       0.09702842 0.045230415 0.1657508 0.20289144
000020 1c d3 32 3d de 79 da 3d 31 12 65 3e 77 26 72 3d
       0.04365836 0.106677756 0.2237022 0.059118714
000030 3f 3a 8a bd 7a da 92 3e 3a e6 ed bc 3c ab 28 bd
       -0.06749391 0.2868231 -0.029040445 -0.041178927
000040 55 f3 04 3d c2 62 03 3e 52 63 52 3e f4 d9 16 3e
       0.032458622 0.12830642 0.205457 0.1473158
000050 aa 49 3a bd a0 9b d1 3d 75 6b 9b 3d e7 b4 01 3e
       -0.045480408 0.10234761 0.07588855 0.12666665
000060 70 85 f3 3d c3 0e e6 3c 1b 7f 15 3e 38 fd d7 3c
       0.118906856 0.02808321 0.14599268 0.026365861
000070 4e fa 21 3e 66 ff a2 bc 2e ed 10 bc 27 7c 9b 3e
       0.1581814 -0.019897174 -0.008845611 0.30368158
000080 65 b4 d7 be 79 07 aa be 4b 62 7c be 22 6c 77 bc
       -0.42129818 -0.33208826 -0.24646871 -0.015101464
000090 a0 c5 23 be e7 15 92 be c1 8c 38 be af 65 b0 bd
       -0.15993357 -0.28532335 -0.18022443 -0.086131446
0000a0 94 e0 9d be ba ba 6a bd 3e 6a 2e be 03 4e d8 bd
       -0.30835402 -0.057306983 -0.17032716 -0.105617546
0000b0 7d be aa be 99 25 ce bd ce b2 85 bd ca ad 30 3e
       -0.33348456 -0.10065765 -0.06528245 0.17253795
0000c0 22 37 bb bc 99 d5 9f be 63 c9 59 be e4 27 ce 3d
       -0.022853438 -0.3121765 -0.21268229 0.10066202
0000d0 7d 32 d0 be bd 74 ec be df 8c 1e 3e b7 76 6a be
       -0.4066352 -0.46182814 0.15483426 -0.22896849
0000e0 99 ab 9b bc ac a7 d0 3d 64 86 60 bd e6 4e df 3d
       -0.019002723 0.10188231 -0.054815665 0.109037206
0000f0 ce a4 a6 3e 47 af 85 be ba d2 89 bc fc 0e 7a bd
       0.3254761 -0.26110289 -0.016824115 -0.061049446
000100 ea 8a 9b 3e cd 35 a5 3e d3 44 88 be 14 77 84 3e
       0.3037942 0.3226761 -0.2661501 0.258721
000110 95 81 bf 3d 02 70 80 be 76 6a 9c be e4 ee 95 3e
       0.09350888 -0.25085455 -0.30549973 0.29283822
000120 05 bb d1 bc 0d 76 94 3c 65 41 80 3d ac 6c 1c be
       -0.025601873 0.018122697 0.06262473 -0.1527583
000130 02 fd 64 3e 8d af 5a 3d d6 b9 9e 3e d6 32 e8 3c
       0.2236214 0.053390075 0.31001157 0.028344553
000140 9e 57 8c bd 98 ff 4f be 41 2e 77 bd d1 ba 0b 3e
       -0.06852649 -0.20312345 -0.060346846 0.13645484
000150 f7 2b 9e 3e 9d dd 49 3e f8 37 b0 3d 66 3d 7b 3e
       0.30892918 0.19713445 0.08604425 0.2453514
000160 79 86 aa 3d 16 9f 80 3d 31 a6 78 3d bd 66 44 3d
       0.0832643 0.06280343 0.060705367 0.04794954
000170 c3 17 b8 bd f2 4a dd bc d4 d0 85 3e 95 f3 9b be
       -0.08988907 -0.027013276 0.26135886 -0.30459276

fc.weight f4 [88, 32]
000000 96 e1 af be 03 87 b2 be 3b 43 8b be 12 57 e8 bb
       -0.34351796 -0.3486863 -0.2719973 -0.0070904577
000010 0e ca 4a be 79 48 84 3e 01 7e 6a 3e 01 14 c8 be
       -0.1980364 0.25836542 0.22899629 -0.39077762
000020 ee 49 94 be 3f 70 83 bc bc e2 f7 be 36 9d 86 3e
       -0.28962654 -0.016044734 -0.48415172 0.26291817
000030 a6 3a 12 be 1c 61 e9 3e a7 47 c8 3d 4a c9 82 3e
       -0.14280185 0.455819 0.097792916 0.25544196
000040 09 cc 1d be 40 e2 63 3e 08 78 26 3d 44 b9 7e be
       -0.15409864 0.22254276 0.040641814 -0.2487536
000050 88 fd 94 be e6 db e1 bd cd 7c 08 3f 0f 8e 03 bf
       -0.2909968 -0.110282704 0.5331543 -0.5138864
000060 89 0e d8 be 6c 18 36 bf 88 10 d1 3e 72 73 b7 be
       -0.4219859 -0.71131015 0.40832925 -0.35830265
000070 49 9e 3c 3e fa 13 c5 3e 43 b0 d9 be 7c ab 88 3e
       0.18419756 0.38491803 -0.4251729 0.26693332
000080 fd 39 a1 be ca f5 3b be d0 73 35 be 39 b9 90 bd
       -0.31489554 -0.1835548 -0.1771996 -0.070665784
000090 84 38 b3 be 6a dd 28 3e 9c 5d 57 3e 65 a6 fa be
       -0.35004056 0.16490713 0.21031803 -0.48955074
0000a0 9a a8 0f be c6 cb dc 3c 39 52 e4 be 5b 69 61 3e
       -0.1402916 0.026952635 -0.4459398 0.22012846
0000b0 cb 0f 92 bd fb 8f c2 3e 4e 20 31 3d 70 50 50 3e
       -0.071319185 0.38000473 0.0432437 0.20343184
0000c0 99 cd 6b bc 0c 88 4b 3e 5d 4b e0 3d 69 a6 8a be
       -0.01439228 0.19876117 0.109518744 -0.27080086
0000d0 31 57 d3 be 8e 63 61 ba a0 ba e2 3e 7a 15 9e be
       -0.4127746 -0.00085979037 0.4428301 -0.3087576
0000e0 fe 07 c8 be 8f 68 3c bf 34 18 9c 3e 12 af c3 be
       -0.39068598 -0.73597044 0.30487216 -0.38219506
0000f0 55 0e 8a 3d c0 c2 c5 3e 64 aa ec be 9d ae 96 3e
       0.06741015 0.38625145 -0.46223748 0.29430094
000100 37 a4 ab be d1 eb 56 be da 17 09 be d3 b7 57 bd
       -0.33523723 -0.20988394 -0.13388005 -0.052665543
000110 4c a2 49 be 72 63 16 3e 5c 8d a9 3e 19 c5 69 be
       -0.19690818 0.14686373 0.3311566 -0.22829093
000120 a0 73 39 be cb 67 09 3d 19 86 62 be e7 de 36 3e
       -0.18110514 0.03354625 -0.22121467 0.17858468
000130 20 45 83 be 42 45 e5 3e 24 28 00 3b 19 03 63 3e
       -0.25638676 0.44779402 0.0019555176 0.2216915
000140 77 10 f7 bd 5f 95 59 3e d5 ab d5 3c 23 4c 72 be
       -0.12063687 0.21248387 0.026082912 -0.23661856
000150 4d 31 b7 be 6d 1d 0b be 69 70 d4 3e 88 f8 08 bf
       -0.357798 -0.13585444 0.41492012 -0.5350423
000160 7e d9 97 be 8a fa 31 bf 29 5f e8 3e 29 3b 6b be
       -0.2965812 -0.6952292 0.453851 -0.22971787
000170 12 95 07 3e 5f ac 84 3e 47 86 b7 be d9 5f a1 3e
       0.1324046 0.2591276 -0.35844633 0.31518438
000180 0e da 8d 3e 3a fa 80 3e 14 8c c6 be 3d f2 ad 3e
       0.27705425 0.25190908 -0.38778746 0.33973876
000190 ac 22 0c bd a1 d9 7f be a9 f3 80 be 96 28 65 3e
       -0.034212753 -0.24985363 -0.25185898 0.22378764
0001a0 e0 54 ba 3e 21 a2 c7 be cc 52 3c 3e da eb 8c be
       0.3639288 -0.38990882 0.1839096 -0.2752369
0001b0 22 23 b9 3e 6b ad 4d 3f 83 4b d7 3e 67 f9 6c be
       0.36159617 0.8034274 0.42049798 -0.23142014
0001c0 20 58 13 bf 2e c2 a2 be 4f 33 c2 be e0 ff 00 3e
       -0.57556343 -0.31788772 -0.3792977 0.12597609
0001d0 a8 1a 8c 3e f4 16 ba be 8f 9b 34 be d3 0a 1b 3e
       0.27364087 -0.36345637 -0.17637466 0.15140848
0001e0 77 e9 d0 be bb fc 29 bf 15 c0 88 be 9e fa 9f 3e
       -0.4080312 -0.6640126 -0.26709047 0.31245893
0001f0 4b cc 2f be 38 8c 8c be 5f 3d 57 3e b7 8e 8a be
       -0.17167775 -0.27450728 0.21019505 -0.27062008
000200 bc 2e f8 be 52 9e c9 be 90 41 96 3e b7 67 b4 be
       -0.48473155 -0.393786 0.29346895 -0.35235378
000210 9a e8 c6 3d 76 e6 e0 3e ac 78 cc 3e 56 76 8b bd
       0.09712334 0.43925828 0.39935815 -0.0680968
000220 e7 c7 19 3e 11 96 8a 3e ec a9 ec bd 44 af ce 3e
       0.15017663 0.27067617 -0.115558475 0.40368092
000230 3b 8b be be df f9 00 bd 77 e3 97 be c5 0c e1 bb
       -0.372156 -0.031488296 -0.2966573 -0.0068679773
000240 77 97 c1 3d 4d 97 b0 3e a7 3c 2b bd 93 bc ed bd
       0.09452718 0.34490433 -0.04180589 -0.11608233
000250 d8 1a 07 3e 73 07 d0 bd 6c 61 41 3d f1 bf 82 bc
       0.13193834 -0.10157671 0.04721205 -0.015960665
000260 85 d6 52 3e 42 2d da 3d 18 54 a0 bc a1 1a b5 bd
       0.20589645 0.106531635 -0.019571349 -0.0884297
000270 3d d7 01 bd 0f 65 57 3e 1f 16 90 be 00 d2 bb 3e
       -0.031699408 0.21034645 -0.28141877 0.36683655
000280 b1 8f 84 3e e8 83 57 3e f4 a6 f8 be 8d 33 81 3e
       0.25890878 0.21046412 -0.48564875 0.25234643
000290 e1 9c 09 be 09 a3 76 be 80 b7 72 be 35 f7 4d 3e
       -0.13438751 -0.2408563 -0.23702812 0.20113833
0002a0 1d a2 bd 3e 2e ed 39 bd 5f 1e 38 3e 3c d6 88 be
       0.37037745 -0.045392208 0.17980336 -0.26725948
0002b0 ae 83 f7 3d 8b c1 84 be f0 ea 58 be 71 05 a1 bd
       0.12085663 -0.25928912 -0.21183372 -0.07862366
0002c0 1a fa f2 3d 27 88 a0 be 46 24 e4 be d9 e2 59 3d
       0.11864109 -0.31353876 -0.44558924 0.053194854
0002d0 b7 e0 45 3e 2d 66 dc 3e 70 78 29 be fb 79 09 3e
       0.19324003 0.43046704 -0.1654985 0.13425438
0002e0 6a 45 ce 3d 9f 58 33 3e cd 15 15 3d 2d f5 54 3e
       0.100718334 0.17514275 0.036397744 0.20796652
0002f0 d3 ea 1e bd b3 7e cb bd ad ce 4c 3e cf 37 86 be
       -0.038798165 -0.09936275 0.20000716 -0.26214454
000300 78 15 7a 3e d5 bc 50 3e da 16 9e 3d ae 06 64 3e
       0.24422252 0.20384534 0.07719202 0.22268173
000310 0a 97 61 3b 4b 5f 63 be 37 4a 57 be d7 b4 35 3e
       0.0034422302 -0.2220432 -0.21024404 0.17744766
000320 34 0c 38 bd 1b e0 5b be 4f 79 1c 3e 89 96 7f be
       -0.044933513 -0.21472208 0.1528065 -0.24959768
000330 de 75 c0 3b ff 85 4c be 87 48 6a 3e 51 f6 2e be
       0.005873426 -0.1997299 0.2287923 -0.1708615
000340 e7 9f f5 3d 07 3c 93 be 28 2d 94 3d 3e f8 be 3d
       0.119933896 -0.28756735 0.07235175 0.09324692
000350 8b 35 c8 bd cd 3f ec be 43 4b 0f be 2c 76 0d 3e
       -0.097758375 -0.46142426 -0.13993554 0.1381461
000360 d2 76 8c 3b cf f9 37 3e 7e b6 9b be fc bc e0 3d
       0.0042866254 0.17966388 -0.30412668 0.10973546
000370 25 6f 17 3b 5c b1 46 be c2 1c 41 3e 0c f6 7a be
       0.0023107019 -0.19403595 0.18858626 -0.24507922
000380 63 30 85 3e f5 11 45 3e f3 97 f4 be b1 c3 b3 3e
       0.2601348 0.19245131 -0.47772178 0.35110238
000390 0a 94 bd bd d9 69 72 be e1 86 83 be 0b 40 52 3e
       -0.09256752 -0.2367319 -0.25688842 0.20532243
0003a0 fa bf b7 3e b4 72 a8 3d 38 13 2b 3e 8f 73 85 be
       0.35888654 0.08225003 0.1670655 -0.26064727
0003b0 a3 ed 7c 3e 38 65 6f be 6f 79 73 be 7d 1e 4e be
       0.24700026 -0.23378456 -0.23776792 -0.20128818
0003c0 68 c1 52 3e 09 c3 9b be 71 1d e6 be 4b 70 9a 3d
       0.20581591 -0.30422238 -0.44944337 0.075409494
0003d0 4f f4 f7 3d 2a 3c e9 3e f9 be 39 be 38 34 49 3e
       0.12107145 0.45553714 -0.18139257 0.19648826
0003e0 88 c6 44 3e e3 6f 7c 3e d1 c1 a2 3e eb 75 b7 3b
       0.19216359 0.24652056 0.31788495 0.0055987737
0003f0 0a eb 28 be ec c7 3a be 35 84 61 3e 30 37 86 be
       -0.1649591 -0.18240327 0.22023089 -0.2621398

fc.bias f4 [88]
000000 90 cd ff be cf 82 b6 be 53 84 f7 be 6a 38 ab 3e
       -0.4996152 -0.35646674 -0.48343143 0.33441478
000010 dd a4 05 3d 9a 46 b6 3e d7 03 d9 3d d6 00 9d 3e
       0.03262793 0.3560074 0.105964355 0.306647
000020 1d 23 54 3e 99 50 a5 bc 87 a0 66 be fd 1f f6 3d
       0.2071652 -0.020180034 -0.22522174 0.1201782
000030 f8 b5 32 be b9 be 40 bd 6e 09 1f 3e 58 30 ba 3e
       -0.17452228 -0.047056887 0.15530941 0.36365008
000040 af 2d 34 bd ef fe ac 3d d5 88 d7 3e dd 00 34 be
       -0.04398888 0.08447062 0.42096582 -0.17578454
000050 ff df 0b be ee fa 6e bc b3 80 e6 bd 9b 9b 9c 3e
       -0.13659666 -0.0145861935 -0.11255016 0.30587468
000060 55 04 aa bd f5 d1 b4 3e 9a dd 55 be 4b e7 90 3e
       -0.083016075 0.35316435 -0.20885316 0.28301463
000070 10 75 2c be eb e2 be bd 64 b6 b8 3d 6c b9 99 3e
       -0.16841531 -0.09320625 0.09019163 0.30024278
000080 bf db e0 3d d2 95 66 be f6 99 91 be e3 e3 b8 be
       0.10979413 -0.2251809 -0.28437775 -0.36111364
000090 2a b5 b8 be 6a 69 15 be 49 88 64 be d8 e8 e7 be
       -0.36075717 -0.14590994 -0.22317614 -0.45294833
0000a0 8a 68 af be 41 7f 87 be 7d 9b f5 bd 5a cf e4 bc
       -0.34259444 -0.26464275 -0.11992548 -0.027930904
0000b0 95 b4 99 be ad 32 a6 be d8 0f 0f be 63 f6 63 be
       -0.30020586 -0.32460538 -0.13970888 -0.22261958
0000c0 b8 dc b5 be f5 ff 4a bb 7c 4b 20 be a2 38 d6 be
       -0.35519958 -0.0030975316 -0.15653795 -0.41840082
0000d0 b9 6e 9e be 12 00 9a be 12 d2 bf be 72 93 75 be
       -0.3094385 -0.3007818 -0.37464958 -0.23982027
0000e0 41 d4 19 be 00 3d 8a be 4c d8 f6 be ed 5d 8b be
       -0.15022375 -0.26999664 -0.48211896 -0.27220097
0000f0 02 e5 fc be ee eb 84 be 62 45 b0 be 2e d5 d5 be
       -0.4939347 -0.2596125 -0.34427935 -0.41764206
000100 e0 7e af be ff 56 16 be ed 57 ce be 4d 8b b4 be
       -0.34276485 -0.14681624 -0.40301457 -0.35262528
000110 1a e6 89 be 96 21 ad be 8c da c5 be b1 90 4c be
       -0.26933366 -0.33814687 -0.386433 -0.1997707
000120 65 06 c2 be 7e 73 a4 be ee 01 f5 be b0 79 8f be
       -0.37895504 -0.32119364 -0.47853035 -0.28022528
000130 32 0e 93 be 27 b1 07 be 60 eb 64 be 24 90 f9 be
       -0.28721768 -0.13251172 -0.22355413 -0.48742783
000140 75 48 e2 be 81 db 4c be e3 1b ce be 57 a2 e6 be
       -0.44195905 -0.20005609 -0.4025565 -0.4504573
000150 11 d6 40 be 79 9f b2 be 89 ec 7a be 28 e8 5a be
       -0.1883166 -0.34887293 -0.24504294 -0.21377623
