NLP with Pytorch/model_storage/ch7/model1_unconditioned_surname_generation/model.pth (torch, 50255 bytes, 7 tensors)

char_emb.weight f4 [88, 32]
0.0 0.0 0.0 0.0 0.0 0.0 0.0 0.0
0.0 0.0 0.0 0.0 0.0 0.0 0.0 0.0
0.0 0.0 0.0 0.0 0.0 0.0 0.0 0.0
0.0 0.0 0.0 0.0 0.0 0.0 0.0 0.0
-0.6630959 -0.25127524 1.0101448 0.12154675 0.15839934 1.1340188 -1.1538976 -0.29839683
-0.50753653 -0.92392117 0.5467061 -1.4947776 -1.2057148 0.57181984 -0.5973545 -0.6936757
1.6455387 -0.8029931 1.3514109 -0.27591935 -1.5108346 2.104773 2.762959 -1.7465292
1.4515902 -1.5102831 0.82115376 -0.21152724 0.7788983 1.5332688 1.6097364 -0.40322813
-0.9972286 0.66182196 -0.25324646 -0.0018427633 -0.5257487 0.48507658 -0.29425776 -1.4624634
2.3428583 -0.5332136 0.3524118 0.8974898 -1.5746971 1.2759746 0.45691767 0.28426185
2.8997343 -1.5844998 1.2859551 0.8258928 -1.8112967 -1.612481 0.86409503 -0.3263404
0.58936447 -0.72805107 0.8479396 -0.80605763 -0.4228171 -0.43972233 -1.3315316 -0.6720942
-1.666937 -1.3651438 -0.1655241 0.96225154 0.03154889 -0.7419016 -0.29778957 0.017165666
-0.1772239 -0.13342951 0.29395735 1.3849541 0.12091276 2.5417871 -0.64046 -1.9740105
-0.32956925 0.007958851 0.9262348 -1.8845556 0.1669616 0.45862234 -1.7662065 0.5859862
1.7510315 0.28072214 0.31096315 -0.65375805 -0.65762633 0.31844944 -0.5495865 -1.4649245
-2.177051 1.8402936 1.1287731 -0.53025895 1.1760224 1.7698393 -0.348853 -1.4070474
-0.18461087 -0.05925035 0.8704848 0.5842864 0.22968118 -0.9481631 0.615666 0.66788566
2.2692268 0.9834214 -1.6460671 -0.4819561 -0.19218986 -0.37210524 -0.98296505 1.384726
-0.8827785 0.30577877 1.0478384 -0.06345395 -1.3255084 -0.6813544 1.5563356 -0.4550447
-1.1943775 0.37444884 -0.4540057 2.4225419 -3.1120338 0.32764837 -0.9320246 -0.30867982
0.20542343 2.0432632 -0.44661918 -0.29968694 -1.3512028 -0.049094163 -2.114199 -1.5481241
-0.14997694 -1.2553188 0.2005743 0.07717585 0.48333278 0.61475694 -1.6785431 1.1239762
1.0956106 1.3268812 0.6293026 -1.0065147 -0.9432234 2.2646415 0.3734184 1.4497982
0.025534425 -0.35607338 1.905404 1.4235198 0.8365343 -0.52925014 -0.33909774 0.5080316
0.15051822 -1.8896556 1.200385 0.51032025 -1.2829642 -0.987137 -0.07708309 -0.0037379556
0.4792312 -0.74540734 -0.3523859 -0.5052636 0.45768222 0.7237106 1.3685421 0.8154692
0.70231146 0.9856079 -0.59533083 -0.78353786 -0.87581193 0.459733 -0.77670056 -0.12203101
-0.9067441 -0.13521755 -0.2416639 -0.38135543 -0.35927066 0.8738712 0.005081349 -0.32812303
1.1647183 -1.7079436 0.37741366 -2.2072532 -1.0436401 0.09979827 -0.8365205 -0.40115005
1.7218313 -0.1977937 -0.84121406 -1.0889533 0.08045855 -0.45698312 -0.15947206 -1.2733678
-0.26544708 0.41688114 -1.1169599 -1.2315589 0.92973894 -1.8041178 -0.58527786 1.3331245
00000000: 0000 0000 0000 0000 0000 0000 0000 0000
00000010: 0000 0000 0000 0000 0000 0000 0000 0000
00000020: 0000 0000 0000 0000 0000 0000 0000 0000
00000030: 0000 0000 0000 0000 0000 0000 0000 0000
00000040: 0000 0000 0000 0000 0000 0000 0000 0000
00000050: 0000 0000 0000 0000 0000 0000 0000 0000
00000060: 0000 0000 0000 0000 0000 0000 0000 0000
00000070: 0000 0000 0000 0000 0000 0000 0000 0000
00000080: a7c0 29bf 26a7 80be 6d4c 813f 81ed f83d
00000090: 7033 223e 8727 913f ebb2 93bf 78c7 98be
000000a0: eaed 01bf 1986 6cbf eef4 0b3f df54 bfbf
000000b0: dd54 9abf c962 123f 39ec 18bf bb94 31bf
000000c0: 03a1 d23f f590 4dbf 08fb ac3f 4d45 8dbe
000000d0: 0763 c1bf 9ab4 0640 52d4 3040 458e dfbf
000000e0: b5cd b93f f550 c1bf 2237 523f 999a 58be
000000f0: e165 473f 2742 c43f d80b ce3f eb73 cebe
00000100: 604a 7fbf 2a6d 293f 85a9 81be e088 f1ba
00000110: 7897 06bf f55b f83e f4a8 96be 0032 bbbf
00000120: 64f1 1540 b080 08bf 526f b43e e4c1 653f
00000130: ad8f c9bf 2353 a33f 1df1 e93e c58a 913e
00000140: 3f95 3940 e4d0 cabf 2d9a a43f b66d 533f
00000150: 92d8 e7bf c765 cebf 5535 5d3f 1716 a7be
00000160: 97e0 163f 8e61 3abf 9212 593f cb59 4ebf
00000170: 7c7b d8be 4923 e1be a16f aabf 5e0e 2cbf
00000180: 315e d5bf 08bd aebf 267f 29be 1e56 763f
00000190: 6939 013d 43ed 3dbf e077 98be 039f 8c3c
000001a0: 2f7a 35be bfa1 08be 9481 963e 2d46 b13f
000001b0: 1ca1 f73d a4ac 2240 30f5 23bf 60ac fcbf
000001c0: 4dbd a8be d765 023c b91d 6d3f 1e39 f1bf
000001d0: fbf7 2a3e 8cd0 ea3e 0e13 e2bf 3103 163f
000001e0: cd21 e03f d0ba 8f3e 9036 9f3e b05c 27bf
000001f0: 335a 28bf ce0b a33e b3b1 0cbf a582 bbbf
00000200: ce54 0bc0 be8e eb3f a37b 903f 0dbf 07bf
00000210: e787 963f 188a e23f dc9c b2be 211a b4bf
00000220: a20a 3dbe 7fb0 72bd 18d8 5e3f cb93 153f
00000230: 8b31 6b3e d1ba 72bf 499c 1d3f 8efa 2a3f
00000240: 033b 1140 81c1 7b3f 54b2 d2bf f3c2 f6be
00000250: 6bcd 44be 9484 bebe 99a3 7bbf b43e b13f
00000260: c6fd 61bf 098f 9c3e 921f 863f 25f4 81bd
00000270: 42aa a9bf 3e6d 2ebf 0136 c73f 9efb e8be
00000280: 5de1 98bf c2b7 bf3e 6f73 e8be ed0a 1b40
00000290: 902b 47c0 87c1 a73e 2a99 6ebf 480b 9ebe
000002a0: 855a 523e d3c4 0240 45ab e4be 9170 99be
000002b0: 37f4 acbf f616 49bd 094f 07c0 ee28 c6bf
000002c0: 8e93 19be 49ae a0bf 5963 4d3e 5f0e 9e3d
000002d0: 6577 f73e b660 1d3f 80da d6bf 74de 8f3f
000002e0: f83c 8c3f 3ed7 a93f fa19 213f 79d5 80bf
000002f0: 1777 71bf e3ef 1040 b230 bf3e fd92 b93f
00000300: 922d d13c 404f b6be 47e4 f33f e635 b63f
00000310: 1d27 563f f07c 07bf 389e adbe 5c0e 023f
00000320: 7321 1a3e 3ce0 f1bf 37a6 993f 59a4 023f
00000330: 2c38 a4bf 03b5 7cbf bddd 9dbd 7df8 74bb
00000340: cb5d f53e 04d3 3ebf ed6b b4be f558 01bf
00000350: 5355 ea3e 1945 393f 632c af3f 97c2 503f
00000360: afca 333f cd50 7c3f 9a67 18bf f095 48bf
00000370: 3635 60bf 2062 eb3e d9d5 46bf 65eb f9bd
00000380: 6220 68bf 7876 0abe be76 77be 0541 c3be
00000390: 53f2 b7be 06b6 5f3f 7281 a63b beff a7be
000003a0: 7d15 953f e59d dabf 5d3c c13e a343 0dc0
000003b0: 0096 85bf 0963 cc3d 3526 56bf 8a63 cdbe
000003c0: f864 dc3f 6f8a 4abe ce59 57bf d262 8bbf
000003d0: 74c7 a43d b1f9 e9be a54c 23be b7fd a2bf
000003e0: aee8 87be 7271 d53e 8bf8 8ebf b9a3 9dbf
000003f0: 5f03 6e3f 55ed e6bf c5d4 15bf d3a3 aa3f

rnn.weight_ih_l0 f4 [96, 32]
-0.164324 0.5637279 -0.45578378 -0.05108136 -0.09923597 0.1496075 -0.30716485 0.0050861896
0.083548725 0.23567966 -0.29561773 -0.0076310015 -0.035627477 0.32111034 -0.17341733 -0.15449658
0.12110251 0.2685941 0.008327251 -0.1475984 0.20243676 -0.5867098 -0.050513223 0.05576707
-0.21306987 0.09709156 0.28824776 -0.04634152 0.16686088 0.025926601 -0.029726166 0.087333985
-0.066669434 0.10823422 0.08542307 -0.2391912 0.23581883 0.043397613 -0.1629916 0.21053728
0.08430118 0.13218394 0.138741 0.044663817 -0.075978674 -0.16632292 0.1793795 -0.06767988
0.11244131 0.19580843 0.25169167 -0.20018528 0.11645034 0.016461503 0.22272272 0.08923363
-0.08559836 -0.55130017 -0.0025289778 -0.08823236 0.2505666 -0.23227294 0.14413442 -0.10608215
0.20260327 0.027744269 -0.052992713 0.43999127 -0.21055071 -0.102720104 0.39079592 -0.06393108
-0.31788698 -0.04774362 0.24297962 0.18514554 -0.15801696 -0.20589854 0.2795468 0.2771048
-0.10322571 0.13322285 -0.16665004 0.060857724 -0.15050249 0.1452616 0.056139328 0.22074556
-0.026321203 0.11250516 0.20619525 -0.13776211 -0.19970074 -0.032019496 -0.07115492 -0.15438883
0.18657717 -0.0011555464 0.13570008 0.29311737 -0.0010714154 -0.007594556 -0.178698 0.03348317
-0.117722735 0.035577126 0.18922122 -0.10867027 -0.16901697 -0.40294525 -0.120926365 0.2239317
-0.14643642 -0.1899008 -0.21382464 0.28938743 0.25133237 0.13495058 -0.006457479 0.21400407
0.11988928 0.11958914 -0.12849423 -0.11820614 -0.008054353 -0.09563986 0.29329485 -0.06542791
0.053192314 0.15814282 -0.050620373 0.26932535 -0.21336623 -0.16410567 -0.15469009 0.56585675
-0.117505625 -0.021234924 -0.16839077 0.037912544 -0.0047172913 0.21241836 0.0606536 0.31947055
0.10912866 0.2512686 -0.17476518 0.24396203 -0.1787383 -0.026141647 0.023553487 0.020720547
0.1223909 -0.4687693 -0.11371951 0.2822737 0.0002390711 0.0378286 0.44423872 -0.007903988
0.075535975 0.010308029 -0.007664425 0.07713688 0.15726161 0.0467989 -0.0681147 0.28568506
0.22643557 -0.21843477 -0.050995383 0.19320072 0.07626498 -0.21155116 0.005254162 0.13894579
0.11842364 -0.12329685 -0.13906746 -0.07992007 0.069345295 0.03493628 -0.048220087 0.2126511
0.27860364 -0.057433143 0.20558229 0.052829295 0.10560125 0.0722682 0.23630162 -0.044325005
0.1540897 0.022108275 -0.05252125 0.21402715 -0.10366831 0.04606742 0.043985534 -0.025365591
0.094351046 -0.10599346 -0.06438316 -0.14681214 -0.20874847 -0.14969882 -0.010166675 0.0030147657
-0.05797071 -0.0100318985 -0.1634966 -0.14112341 0.15501699 0.23106156 -0.006019466 -0.13455926
0.11819461 -0.31009254 0.08802306 -0.04664226 -0.21577919 -0.18002915 -0.009132594 -0.1810711
0.15624198 0.12492552 0.315523 0.10851712 0.24059196 0.001466293 -0.031172123 0.26790458
0.17757308 -0.04135852 0.0030796747 -1.7355856e-05 -0.128539 0.00943732 0.10273153 -0.02468467
-0.14511432 0.012550702 -0.04118815 -0.04366511 -0.041277017 -0.059564628 0.020138929 0.37182713
0.24622636 -0.12537488 -0.003787423 -0.22382681 -0.1878027 -0.17275345 0.153159 -0.058871634
00000000: 8d44 28be 7950 103f 7e5c e9be b03a 51bd
00000010: 3a3c cbbd b532 193e b644 9dbe 0daa a63b
00000020: 981b ab3d 0256 713e 355b 97be 7b0d fabb
00000030: 1eee 11bd 9368 a43e 5094 31be 5a34 1ebe
00000040: 9804 f83d 2a85 893e 066f 083c 0924 17be
00000050: 954b 4f3e 9d32 16bf f4e6 4ebd 036c 643d
00000060: fd2e 5abe f1d7 c63d 3695 933e 9bd0 3dbd
00000070: 94dd 2a3e 0664 d43c 4a84 f3bc 29dc b23d
00000080: fc89 88bd e7a9 dd3d 4af2 ae3d 8aee 74be
00000090: 7e7a 713e b2c1 313d 45e7 26be 1697 573e
000000a0: 19a6 ac3d 3a5b 073e 1f12 0e3e 68f1 363d
000000b0: b59a 9bbd 8e50 2abe 42af 373e c09b 8abd
000000c0: a147 e63d 0182 483e bbdd 803e 5ffd 4cbe
000000d0: 847d ee3d 46da 863c 6d11 643e 1fc0 b63d
000000e0: 314e afbd 0222 0dbf 35bd 25bb 2bb3 b4bd
000000f0: 444a 803e f5d8 6dbe f997 133e 9941 d9bd
00000100: 3b77 4f3e f347 e33c e30e 59bd 8946 e13e
00000110: 9b9a 57be eb5e d2bd 6716 c83e 4cee 82bd
00000120: 15c2 a2be d08e 43bd a6cf 783e cb96 3d3e
00000130: 33cf 21be 11d7 52be c220 8f3e aee0 8d3e
00000140: 0068 d3bd 926b 083e 4fa6 2abe f345 793d
00000150: 531d 1abe 75bf 143e 5af2 653d 200b 623e
00000160: 909f d7bc 1b69 e63d d924 533e 8311 0dbe
00000170: 5a7e 4cbe e026 03bd acb9 91bd 1b18 1ebe
00000180: 160e 3f3e b475 97ba f6f4 0a3e 7b13 963e
00000190: bc6e 8cba c1db f8bb 9cfc 36be a625 093d
000001a0: 9e18 f1bd 52b9 113d 35c3 413e 858e debd
000001b0: c912 2dbe d74e cebe 3ea8 f7bd 5a4e 653e
000001c0: 6ef3 15be 5b75 42be d9f4 5abe 972a 943e
000001d0: a3ae 803e 7c30 0a3e 4399 d3bb e223 5b3e
000001e0: 8388 f53d 27eb f43d fe93 03be 1016 f2bd
000001f0: 68f6 03bc d5de c3bd be2a 963e 11ff 85bd
00000200: 2fe0 593d 31f0 213e 4f57 4fbd 03e5 893e
00000210: ad7c 5abe 510b 28be 1467 1ebe fddb 103f
00000220: caa6 f0bd ddf4 adbc a16e 2cbe 2f4a 1b3d
00000230: 8293 9abb 3384 593e e96f 783d a591 a33e
00000240: d97e df3d 47a6 803e a5f5 32be 2fd1 793e
00000250: 2c07 37be 0227 d6bc 3ef3 c03c 23be a93c
00000260: 15a8 fa3d 8802 f0be c6e5 e8bd 2e86 903e
00000270: 29af 7a39 29f2 1a3d 4273 e33e ba7f 01bc
00000280: 9bb2 9a3d 02e3 283c db25 fbbb f1f9 9d3d
00000290: 3009 213e 34b0 3f3d b87f 8bbd 5045 923e
000002a0: bade 673e 5dad 5fbe 89e0 50bd 69d6 453e
000002b0: d030 9c3d dea0 58be 1b2b ac3b ce47 0e3e
000002c0: 1888 f23d 0f83 fcbd b367 0ebe 22ad a3bd
000002d0: e804 8e3d 5819 0f3d 6d82 45bd 36c1 593e
000002e0: 23a5 8e3e 043f 6bbd 2a84 523e 8863 583d
000002f0: 7845 d83d 5a01 943d 0df9 713e 238e 35bd
00000300: b1c9 1d3e 6a1c b53c 8620 57bd ef29 5b3e
00000310: 0d50 d4bd 31b1 3c3d 2d2a 343d 80cb cfbc
00000320: 1f3b c13d 1913 d9bd 51db 83bd ec55 16be
00000330: 29c2 55be a64a 19be 2092 26bc 6093 453b
00000340: b272 6dbd d55c 24bc a76b 27be a882 10be
00000350: c6bc 1e3e 679b 6c3e f13e c5bb e7c9 09be
00000360: 0410 f23d 73c4 9ebe 6f45 b43d f40b 3fbd
00000370: 38f5 5cbe 9059 38be e0a0 15bc b46a 39be
00000380: e6fd 1f3e f3d8 ff3d 3b8c a13e 393e de3d
00000390: bd5d 763e a130 c03a ae5c ffbc ca2a 893e
000003a0: b8d5 353e 8d67 29bd 5ed4 493b 6b97 91b7
000003b0: ba9f 03be fd9e 1a3c e964 d23d 8137 cabc
000003c0: d998 14be 76a1 4d3c e8b4 28bd 30da 32bd
000003d0: 1712 29bd 0afa 73bd 65fa a43c 2060 be3e
000003e0: c322 7c3e 4662 00be 6a36 78bb db32 65be
000003f0: 5a4f 40be 48e6 30be b7d5 1c3e 6223 71bd

rnn.weight_hh_l0 f4 [96, 32]
-0.0294638 0.079202086 -0.07989553 0.030861411 -0.07312461 0.14114867 -0.024242748 -0.023168363
-0.33785915 0.042700414 -0.096818805 -0.25115094 0.4839834 0.20955345 0.15525424 -0.015347456
-0.24631482 0.028616246 -0.14567551 -0.104948804 -0.012271219 -0.46284896 0.46827093 0.124649145
0.07446532 0.19102858 0.36955145 0.06240829 0.2822725 0.008738679 0.0598864 0.0019964129
0.11426114 0.36402127 -0.14561725 -0.3660642 -0.08072742 -0.123857826 0.089354575 -0.12207189
-0.13189577 0.15052064 0.06453817 0.43303582 0.48348778 -0.20319778 0.27926335 -0.033593476
0.020811014 0.076136306 -0.085759304 0.22713287 0.13963154 -0.33615062 -0.008067261 0.08409654
-0.087165184 0.026992042 -0.33059734 0.12039781 0.07523028 0.02918564 0.054633364 0.08692169
-0.13985275 0.8426946 -0.28683767 -0.1643232 0.23796049 -0.30219606 0.021907462 0.17478721
-0.10450942 -0.09548648 -0.035654847 0.04626698 -0.027741335 0.268703 0.060122382 0.005812852
-0.003482348 0.43543196 -0.072162926 0.21750852 0.36681485 0.023367848 0.39816678 0.07539088
-0.00073083007 0.21217684 0.330363 0.14262185 0.27208596 0.10529223 0.1758709 0.22935072
0.013721477 0.23283005 0.33340776 -0.25324002 0.18390593 -0.45909557 -0.084867075 0.065133974
0.12752926 -0.15251863 0.4039181 -0.3994726 0.5382272 0.3319415 0.51470524 0.33302253
-0.009944207 0.012932728 0.15415742 0.28626078 0.12197164 0.09233429 -0.5104209 0.13767213
0.123209715 0.032664046 0.14502275 0.009548341 0.26863676 0.2321243 0.04486833 -0.32643774
0.055726334 0.24479035 0.20447525 -0.19926848 0.45330468 0.037659585 -0.083086334 -0.06941062
-0.08077516 0.16251242 -0.052402202 0.30566618 -0.027674748 -0.45155156 0.103879616 -0.12104796
-0.0893528 -0.08363403 -0.018901262 0.19908479 -0.02700593 -0.5839761 0.07213405 0.08176306
0.031531923 -0.11232424 0.06840408 -0.101654105 0.2251043 0.16825473 0.15574619 -0.03601554
0.109129906 0.20336793 0.25855497 -0.12597415 -0.041861467 0.14572239 0.04019481 -0.07915228
0.19436584 0.127667 -0.11024493 0.2599211 0.19445376 0.15480846 0.13734615 0.07472928
-0.07307298 -0.016605476 -0.01319865 0.05697181 -0.056074128 -0.06968915 -0.24327627 -0.19884473
-0.050701037 -0.06097024 0.37234873 -0.17815743 0.1311318 0.18579032 -0.03035059 -0.08320054
0.0073009636 0.1728124 0.15313828 -0.10580985 0.12615888 0.18457632 -0.06334624 0.08269475
0.2699551 0.23705171 0.26289982 -0.32268372 0.04819291 -0.0006769131 0.14675291 -0.2844745
-0.11438611 -0.1465329 -0.15839216 0.08421621 -0.06358521 -0.23636171 -0.15808104 0.18194266
0.18956566 0.09508094 0.19330691 -0.18592288 0.3056114 0.07494038 0.15670525 -0.10532652
-0.3488504 0.17137784 -0.042462155 0.022785254 0.13775516 -0.20387332 -0.27325377 0.10414913
0.024697388 -0.14129712 0.25519368 0.07198178 0.028484207 0.040002532 0.032424603 -0.6381624
-0.06850538 -0.43308777 -0.018863862 0.25402042 -0.06455087 -0.18764658 -0.04685588 -0.009636682
0.10323966 -0.016928133 -0.02861592 -0.04116116 0.13076225 0.23932981 0.09119266 0.019970087
00000000: 115e f1bc b434 a23d 45a0 a3bd 12d1 fc3c
00000010: 5bc2 95bd 4789 103e ba98 c6bc 94cb bdbc
00000020: e0fb acbe a1e6 2e3d f048 c6bd db96 80be
00000030: accc f73e 2e95 563e f8fa 1e3e e573 7bbc
00000040: f439 7cbe 9e6c ea3c f62b 15be 66ef d6bd
00000050: 390d 49bc 8afa ecbe 35c1 ef3e 0d48 ff3d
00000060: 4681 983d ff9c 433e d935 bd3e d69f 7f3d
00000070: 0586 903e ad2c 0f3c 714b 753d 40d6 023b
00000080: bf01 ea3d ff60 ba3e b01c 15be c46c bbbe
00000090: 6b54 a5bd 2ca9 fdbd 88ff b63d d400 fabd
000000a0: af0f 07be 1522 1a3e 972c 843d dfb6 dd3e
000000b0: b68b f73e 1413 50be 9bfb 8e3e 5099 09bd
000000c0: dc7b aa3c 5aed 9b3d 93a2 afbd 8595 683e
000000d0: 92fb 0e3e ef1b acbe 8c2c 04bc cf3a ac3d
000000e0: a983 b2bd 6a1e dd3c 0e44 a9be 2193 f63d
000000f0: 5512 9a3d b916 ef3c 3cc7 5f3d 0004 b23d
00000100: 8f35 0fbe d5ba 573f 63dc 92be 5744 28be
00000110: eaab 733e 71b9 9abe 4777 b33c 6bfb 323e
00000120: 0909 d6bd 6a8e c3bd d10a 12bd 7282 3d3d
00000130: cc41 e3bc 7193 893e e342 763d bd79 be3b
00000140: 1b38 64bb f0f0 de3e 28ca 93bd 8eba 5e3e
00000150: 28cf bb3e ee6d bf3c 84dc cb3e 8966 9a3d
00000160: 2d95 3fba e344 593e 5725 a93e 760b 123e
00000170: da4e 8b3e 74a3 d73d 8017 343e eada 6a3e
00000180: 0cd0 603c 006b 6e3e 6cb4 aa3e ada8 81be
00000190: d651 3c3e 930e ebbe cace adbd f664 853d
000001a0: 0897 023e d82d 1cbe 5ace ce3e ac87 ccbe
000001b0: 42c9 093f 3cf4 a93e b9c3 033f ee81 aa3e
000001c0: 07ed 22bc cbe3 533c 71db 1d3e c690 923e
000001d0: 44cc f93d c319 bd3d f2aa 02bf ecf9 0c3e
000001e0: 6055 fc3d bcca 053d d880 143e a570 1c3c
000001f0: c28a 893e feb1 6d3e dbc7 373d d922 a7be
00000200: 4c41 643d 52aa 7a3e f661 513e 090d 4cbe
00000210: 8d17 e83e f040 1a3d 2b29 aabd 2827 8ebd
00000220: 726d a5bd a869 263e b1a3 56bd 4780 9c3e
00000230: 27b6 e2bc c431 e7be d6be d43d fee7 f7bd
00000240: 9afe b6bd 5148 abbd d2d6 9abc e2dc 4b3e
00000250: 8a3b ddbc 757f 15bf 04bb 933d 6473 a73d
00000260: 9e27 013d 400a e6bd 7017 8c3d 0730 d0bd
00000270: be81 663e f84a 2c3e ee7b 1f3e 0885 13bd
00000280: 807f df3d af3f 503e 5161 843e 5eff 00be
00000290: ee76 2bbd 4038 153e 50a3 243d 971a a2bd
000002a0: d707 473e 23bb 023e 18c8 e1bd 6114 853e
000002b0: e31e 473e 1c86 1e3e 78a4 0c3e aa0b 993d
000002c0: 49a7 95bd 3508 88bc 273f 58bc 465b 693d
000002d0: fcad 65bd 2fb9 8ebd 6a1d 79be f49d 4bbe
000002e0: e4ab 4fbd eebb 79bd 7ea4 be3e e76e 36be
000002f0: 6a47 063e d13f 3e3e cda1 f8bc 0b65 aabd
00000300: ec3c ef3b bcf5 303e 48d0 1c3e d6b2 d8bd
00000310: cb2f 013e 9301 3d3e acbb 81bd dd5b a93d
00000320: 8e37 8a3e afbd 723e ce9a 863e cd36 a5be
00000330: ee65 453d df72 31ba 6546 163e a4a6 91be
00000340: 4443 eabd b80c 16be 8e31 22be 8c79 ac3d
00000350: f638 82bd ce08 72be ffdf 21be 2d4f 3a3e
00000360: 801d 423e ccb9 c23d 3ff2 453e 9162 3ebe
00000370: 1979 9c3e 587a 993d 5777 203e 6eb5 d7bd
00000380: 859c b2be ac7d 2f3e ccec 2dbd 24a8 ba3c
00000390: b00f 0d3e 2bc4 50be ebe7 8bbe 244c d53d
000003a0: 2d52 ca3c 31b0 10be bfa8 823e 2f6b 933d
000003b0: b657 e93c b2d9 233d a9cf 043d 9c5e 23bf
000003c0: 8c4c 8cbd aebd ddbe 6388 9abc f70e 823e
000003d0: 3f33 84bd 6d26 40be f4eb 3fbd 2de3 1dbc
000003e0: 516f d33d deac 8abc ef6b eabc 9b98 28bd
000003f0: 8ae6 053e e012 753e 38c3 ba3d 4f98 a33c

rnn.bias_ih_l0 f4 [96]
0.31153294 -0.10489668 0.011538151 0.080203734 -0.10586659 -0.022653177 0.22363468 0.21664117
-0.07525423 0.096432835 -0.10544379 -0.03552497 0.10940383 -0.10325475 0.0699691 0.0057916036
0.1306534 0.20859475 0.21760195 0.13088846 0.20844167 0.22199015 -0.011714947 0.01294285
0.2236283 0.21076557 0.13841937 0.33297932 0.1604524 0.30897042 0.027909195 0.24004151
-0.2245001 -0.21616189 -0.44644776 -0.12552007 0.06125878 -0.1169123 -0.29507992 -0.14832956
-0.2981764 -0.4559464 -0.23179136 -0.08647209 -0.38996118 -0.45630217 -0.060651205 -0.34519804
-0.21224718 -0.07708555 -0.15562509 -0.082852766 -0.29858184 -0.25047502 -0.056890447 -0.20615427
-0.01114108 0.045677613 -0.023032947 -0.15064232 0.048826184 -0.2879103 -0.18874264 -0.21619725
0.044061545 0.11203916 0.09161314 -0.15200256 0.25577077 0.11786323 -0.08306605 0.20418394
-0.093563795 0.19514501 -0.2109419 0.2624807 -0.07371754 -0.065471925 0.129897 -0.09163301
-0.04786149 -0.13334095 0.02584194 0.00848036 -0.1331263 -0.13016698 0.16171214 -0.072076924
0.0015623113 0.08725072 -0.09151809 -0.021235226 0.25922263 0.12898073 0.15130283 -0.113006346
00000000: 3f81 9f3e 12d4 d6bd 830a 3d3c db41 a43d
00000010: 95d0 d8bd 2893 b9bc 7d00 653e 2fd7 5d3e
00000020: e41e 9abd 947e c53d eaf2 d7bd a282 11bd
00000030: 1d0f e03d 3a77 d3bd f64b 8f3d 7ec7 bd3b
00000040: 01ca 053e dd99 553e 0cd3 5e3e a007 063e
00000050: bc71 553e 6351 633e 0df0 3fbc 3f0e 543c
00000060: d1fe 643e eed2 573e cfbd 0d3e 447c aa3e
00000070: a24d 243e 5f31 9e3e d3a1 e43c 71cd 753e
00000080: 5be3 65be 8b59 5dbe cd94 e4be 5588 00be
00000090: 7dea 7a3d b76f efbd b714 97be b4e3 17be
000000a0: 94aa 98be ce71 e9be b75a 6dbe 4718 b1bd
000000b0: fea8 c7be 70a0 e9be 666d 78bd ccbd b0be
000000c0: 5357 59be 07df 9dbd 2f5c 1fbe b6ae a9bd
000000d0: b8df 98be 433e 80be f505 69bd 1b1a 53be
000000e0: 1489 36bc 7318 3b3d 97af bcbc fb41 1abe
000000f0: f7fd 473d fb68 93be c045 41be d062 5dbe
00000100: e179 343d ca74 e53d ac9f bb3d 8fa6 1bbe
00000110: 63f4 823e 4762 f13d 891e aabd 9815 513e
00000120: 609e bfbd 18d4 473e 2701 58be df63 863e
00000130: 39f9 96bd 2516 86bd b803 053e 16aa bbbd
00000140: 690a 44bd 888a 08be 7ab2 d33c 35f1 0a3c
00000150: 4352 08be 7e4a 05be de97 253e 119d 93bd
00000160: 78c6 cc3a 81b0 b23d d66d bbbd 7ff5 adbc
00000170: d4b8 843e 8613 043e 21ef 1a3e df6f e7bd

rnn.bias_hh_l0 f4 [96]
0.19874793 0.082236454 0.15616275 0.0072238017 0.0960802 0.21902183 0.114818536 0.1040407
-0.030187527 0.352214 -0.12728679 -0.13768621 -0.036732502 -0.17405182 -0.0379931 0.06613875
-0.0025565024 -0.003468058 0.15541086 0.047235966 0.24729398 0.03012034 -0.15235642 0.22629553
0.023535036 -0.047587097 -0.08185048 0.14015079 0.10307782 0.10470225 -0.015843011 0.1478516
-0.36780724 -0.23671377 -0.46043596 -0.3715686 -0.18674108 -0.025418999 -0.26197025 0.013436951
-0.2647907 -0.51202965 -0.1766228 -0.34512275 -0.43518665 -0.46939114 0.026988192 -0.2198568
-0.3100046 -0.33352524 -0.20897052 -0.03501998 -0.12781724 -0.37260124 -0.20356959 0.05762248
-0.03827788 -0.2288723 -0.015881553 -0.45061782 -0.19752122 -0.1441292 -0.20462912 -0.2197305
-0.16507173 0.2729533 0.28725517 -0.3018347 0.13178234 0.04918157 -0.092583545 0.15972547
0.068573184 -0.05636555 0.21724004 0.10773017 0.23105218 0.15096624 -0.06710025 -0.21367835
-0.29877046 0.09053178 -0.1259194 0.1856481 -0.1446196 -0.23041958 0.109318785 0.16480897
0.20380293 0.04733824 0.23756514 -0.14796919 0.2716076 0.28667796 0.2158167 0.010283147
00000000: 9484 4b3e 966b a83d 21e9 1f3e a4b5 ec3b
00000010: b2c5 c43d 4247 603e fb25 eb3d 4a13 d53d
00000020: d54b f7bc 6555 b43e 7857 02be 9dfd 0cbe
00000030: d274 16bd a43a 32be a79e 1bbd c173 873d
00000040: fe8a 27bb 5c48 63bb 0624 1f3e 807a 413d
00000050: a23a 7d3e eebe f63c 5203 1cbe 04ba 673e
00000060: 8ccc c03c b0ea 42bd 39a1 a7bd b083 0f3e
00000070: 771a d33d 226e d63d 34c9 81bc 6966 173e
00000080: 3b51 bcbe 1865 72be 43be ebbe 3d3e bebe
00000090: 0e39 3fbe 813b d0bc f720 86be a826 5c3c
000000a0: a692 87be 6014 03bf 9bdc 34be eeb3 b0be
000000b0: c9d0 debe 0954 f0be 5716 dd3c 2422 61be
000000c0: ecb8 9ebe d2c3 aabe 5efc 55be 1c71 0fbd
000000d0: 86e2 02be 97c5 bebe 8c74 50be 8d05 6c3d
000000e0: 44c9 1cbd 805d 6abe 081a 82bc 61b7 e6be
000000f0: 0143 4abe 9b96 13be 4c8a 51be 0801 61be
00000100: 9008 29be 89c0 8b3e 1c13 933e 148a 9abe
00000110: f3f1 063e 9d72 493d 719c bdbd 138f 233e
00000120: 1970 8c3d 90df 66bd 2c74 5e3e a3a1 dc3d
00000130: f198 6c3e e596 1a3e db6b 89bd 7fce 5abe
00000140: 71f8 98be ba68 b93d 04f1 00be 891a 3e3e
00000150: 2917 14be 1cf3 6bbe 87e2 df3d afc3 283e
00000160: b7b1 503e bee5 413d 4744 733e 3c85 17be
00000170: 2710 8b3e 74c7 923e 0eff 5c3e a57a 283c

fc.weight f4 [88, 32]
0.1889009 -0.29626375 -0.3400531 0.1679132 -0.3196473 0.2369312 0.29105246 -0.45971745
-0.21959163 -0.37105814 -0.35245237 0.0068577435 -0.26253784 -0.21022952 -0.19232187 0.2808049
0.27201924 0.0894046 0.2601979 -0.10183706 0.26476815 -0.008812444 -0.3054464 -0.28890917
-0.2505902 -0.20294447 -0.14940548 0.4696516 -0.46652153 -0.414592 -0.19148028 0.17842436
0.19764386 -0.21300972 -0.35117504 0.21355937 -0.42807108 0.22538978 0.44051337 -0.47797436
-0.20736337 -0.3470068 -0.39786932 0.10680555 -0.14699842 -0.11149036 -0.16054015 0.20570195
0.23167458 0.04368803 0.29161492 -0.33901188 0.39744997 0.06496816 -0.21569128 -0.39099643
-0.18869357 -0.3927129 -0.29441166 0.50346535 -0.37108475 -0.5442716 -0.19846897 0.23289944
0.2134611 -0.2900653 -0.374703 0.22550625 -0.3997681 0.25898427 0.60756296 -0.54685616
-0.13334699 -0.25248313 -0.35961464 0.1032625 -0.26143175 -0.1405189 -0.15465187 0.26842758
0.30774465 0.09204077 0.22102986 -0.17875929 0.3082812 0.028301945 -0.17259267 -0.4129124
-0.2877509 -0.42992938 -0.3613397 0.3769278 -0.24359567 -0.31464785 -0.3424801 0.29492038
-0.3108074 0.21294795 0.15507273 -0.25738835 -0.5325884 0.42152578 -0.17982668 0.19638444
0.2579932 0.16648133 0.026986487 -0.2211196 0.41278967 -0.16936696 0.28773022 -0.21242838
-0.23879793 0.32951775 -0.34175596 0.23413081 -0.25103167 -0.24370028 -0.36298075 -0.45528793
0.2242298 0.2902 -0.3591866 -0.2090112 0.22124757 0.19320574 0.20902877 -0.22450438
-0.13626087 0.10223519 -0.38273668 0.3247365 0.1013884 -0.26732895 0.038309287 -0.101895384
-0.31369203 -0.35402885 0.084593154 0.2761341 0.1583329 0.13329169 -0.25112233 0.35573402
0.40749365 0.3162053 0.06647396 0.018256158 0.3423863 0.29619464 0.14831917 0.09424523
-0.38220316 -0.07085007 0.054981206 0.42183182 -0.08590942 -0.0050034295 -0.3913399 0.34384537
0.3926011 0.2140542 0.24109206 -0.25527775 0.17871845 0.37239054 -0.13406537 0.17019875
0.146934 0.18232559 -0.3699067 0.22268997 -0.06924293 -0.27849716 0.015176947 -0.18261847
-0.22622718 -0.11215577 -0.25260416 0.208957 -0.22886498 -0.35227925 0.18957464 0.18915704
0.2023952 0.22565721 0.17134868 -0.19282857 0.19962852 0.17090258 0.23901919 -0.12402786
-0.09349057 -0.108878724 0.20251423 -0.18195187 0.25445986 -0.1262946 -0.14622782 0.13554974
0.05620331 0.04245683 0.3333677 -0.2034478 0.19131671 -0.17461112 0.20413001 -0.13383111
-0.19712503 -0.3021048 -0.20112379 0.07453782 -0.22089522 -0.13343422 -0.053077728 0.20402141
0.18944253 0.12490647 -0.11289825 -0.18505333 0.18198608 0.1558451 0.15801637 -0.2013772
0.36739996 0.238629 0.16599184 -0.26068324 0.25050652 0.023655862 -0.16374843 0.15927052
0.23305808 0.22994193 -0.35007283 0.3255329 -0.11751571 -0.27425697 -0.02164001 -0.26511502
-0.22675937 0.13376778 -0.311848 0.16040237 -0.22809617 -0.35278016 0.19693069 0.28175986
0.20197976 0.043786585 0.21608803 -0.19979414 0.20300053 0.1629853 0.2174236 -0.13295
00000000: 3d6f 413e e2af 97be 711b aebe 70f1 2b3e
00000010: d0a8 a3be 189e 723e d404 953e 1660 ebbe
00000020: a1dc 60be 55fb bdbe a374 b4be ecb6 e03b
00000030: 5c6b 86be 6846 57be 06f0 44be a9c5 8f3e
00000040: 1b46 8b3e c219 b73d a938 853e f38f d0bd
00000050: b18f 873e 1262 10bc 7863 9cbe e7eb 93be
00000060: 5c4d 80be add0 4fbe c0fd 18be 2d76 f03e
00000070: e9db eebe 6745 d4be 6813 44be e0b4 363e
00000080: 2763 4a3e 381f 5abe 37cd b3be 4faf 5a3e
00000090: 222c dbbe 94cc 663e f88a e13e 0eb9 f4be
000000a0: 1057 54be e0aa b1be 87b5 cbbe debc da3d
000000b0: c186 16be 0f55 e4bd a364 24be 88a3 523e
000000c0: 1a3c 6d3e 38f2 323d 8d4e 953e f792 adbe
000000d0: 907e cb3e 070e 853d 2dde 5cbe af30 c8be
000000e0: e338 41be aa11 c9be 20bd 96be 1be3 003f
000000f0: d2fe bdbe 6255 0bbf 733b 4bbe 317d 6e3e
00000100: 8c95 5a3e 7083 94be 12d9 bfbe 1ceb 663e
00000110: 68ae ccbe 9699 843e 3f89 1b3f c4fe 0bbf
00000120: 1d8c 08be 7845 81be 691f b8be 4a7b d33d
00000130: 62da 85be 30e4 0fbe 0f5d 1ebe 576f 893e
00000140: b590 9d3e df7f bc3d a755 623e ad0c 37be
00000150: 09d7 9d3e 7bd9 e73c 22bc 30be 4169 d3be
00000160: 1654 93be b41f dcbe 8401 b9be aefc c03e
00000170: 2571 79be 8619 a1be 8d59 afbe ceff 963e
00000180: 2622 9fbe 070f 5a3e 63cb 1e3e 68c8 83be
00000190: b757 08bf 3ad2 d73e 7c24 38be 0119 493e
000001a0: af17 843e 157a 2a3e c412 dd3c 2d6d 62be
000001b0: 2b59 d33e 886e 2dbe 6051 933e d386 59be
000001c0: 7287 74be 8db6 a83e a3fa aebe fdbf 6f3e
000001d0: 3987 80be 918c 79be 9dd8 b9be 801b e9be
000001e0: 7f9c 653e 1895 943e 4ee7 b7be 0807 56be
000001f0: b98e 623e bad7 453e a30b 563e 7ae4 65be
00000200: f887 0bbe af60 d13d 10f6 c3be dd43 a63e
00000210: b9a4 cf3d 57df 88be 33ea 1c3d 87ae d0bd
00000220: 3e9c a0be 4543 b5be 2d3f ad3d 7361 8d3e
00000230: 0522 223e 9e7d 083e 1b93 80be c522 b63e
00000240: 02a3 d03e a9e5 a13e 8023 883d f08d 953c
00000250: 424d af3e d3a6 973e fbe0 173e a503 c13d
00000260: 22b0 c3be d719 91bd f933 613d 57fa d73e
00000270: 47f1 afbd cff3 a3bb b45d c8be 800c b03e
00000280: 0303 c93e 0631 5b3e d6e0 763e c4b3 82be
00000290: f801 373e f9a9 be3e 6f48 09be 9548 2e3e
000002a0: de75 163e 8fb3 3a3e 6964 bdbe d708 643e
000002b0: 3dcf 8dbd 2e97 8ebe bba8 783c 5600 3bbe
000002c0: 19a8 67be edb1 e5bd 5555 81be d3f8 553e
000002d0: 955b 6abe f25d b4be db1f 423e 62b2 413e
000002e0: b040 4f3e af12 673e 0776 2f3e da74 45be
000002f0: 6b6b 4c3e 1601 2f3e 72c1 743e 5202 febd
00000300: fc77 bfbd cffb debd e45f 4f3e 9751 3abe
00000310: 9048 823e 5f53 01be bfbc 15be 8dcd 0a3e
00000320: 7135 663d 37e7 2d3d 2caf aa3e 9f54 50be
00000330: 87e8 433e 42cd 32be 7507 513e 060b 09be
00000340: 25db 49be 7bad 9abe 65f3 4dbe 49a7 983d
00000350: 5b32 62be fba2 08be 0868 59bd fdea 503e
00000360: 39fd 413e f7ce ff3d 3337 e7bd 9f7e 3dbe
00000370: 8f5a 3a3e dc95 1f3e 0bcf 213e d335 4ebe
00000380: d91b bc3e 295b 743e c4f9 293e 4678 85be
00000390: 6442 803e f0c9 c13c abad 27be d017 233e
000003a0: c7a6 6e3e e675 6b3e bf3c b3be 40ac a63e
000003b0: 14ac f0bd 696b 8cbe 6446 b1bc 28bd 87be
000003c0: 9c33 68be 6cfa 083e 8baa 9fbe 8540 243e
000003d0: 0b92 69be 9a9f b4be 33a8 493e d442 903e
000003e0: c8d3 4e3e 9059 333d 2e46 5d3e d696 4cbe
000003f0: 5fdf 4f3e 9ee5 263e 4ba4 5e3e 0b24 08be

fc.bias f4 [88]
-0.4274735 -0.3496975 -0.3156936 0.41448894 -0.17294323 0.22302243 0.09301855 0.4670396
0.05194864 -0.07257011 -0.06739208 -0.0069120307 -0.0431306 -0.31197676 0.022823025 0.17926657
-0.1472028 0.07016329 0.3183719 -0.15928125 -0.19407347 -0.21117517 -0.093104094 0.3041683
-0.18763 0.24057955 -0.1345786 0.38698256 -0.13523218 -0.040374912 0.08987791 0.12376815
0.09552244 -0.22335488 -0.15199246 -0.33325714 -0.20097923 -0.06261614 -0.31802267 -0.26706874
-0.28132543 -0.26589587 -0.1204021 -0.04013154 -0.11456209 -0.3534921 -0.12423673 -0.27549475
-0.07156564 -0.26503354 -0.22637115 -0.35204363 -0.38264018 -0.15914382 -0.35057652 -0.27022177
-0.33052084 -0.14507708 -0.16914102 -0.39904195 -0.21919368 -0.3146132 -0.13800646 -0.2276248
-0.26049414 -0.28240392 -0.2502867 -0.23074134 -0.11887604 -0.10170179 -0.42305964 -0.12707683
-0.2910421 -0.27216515 -0.3170905 -0.10642953 -0.29813752 -0.102067925 -0.3260643 -0.4328695
-0.34325808 -0.3791826 -0.25824967 -0.38859585 -0.1011179 -0.19061843 -0.27203682 -0.32526067
00000000: cedd dabe 8d0b b3be 97a2 a1be e537 d43e
00000010: 0818 31be fe5f 643e 8280 be3d d01f ef3e
00000020: 19c8 543d a39f 94bd dc04 8abd 517e e2bb
00000030: b6a9 30bd 6bbb 9fbe 5af7 ba3c a891 373e
00000040: 55bc 16be c5b1 8f3d a401 a33e a01a 23be
00000050: 32bb 46be 4e3e 58be 5cad bebd f3bb 9b3e
00000060: 1422 40be 7c5a 763e f9ce 09be 9422 c63e
00000070: 4e7a 0abe 2a60 25bd e911 b83d 287a fd3d
00000080: 45a1 c33d 24b7 64be e9a3 1bbe aea0 aabe
00000090: 80cd 4dbe e43c 80bd ded3 a2be 3cbd 88be
000000a0: e309 90be 8123 88be 6095 f6bd f860 24bd
000000b0: 879f eabd ebfc b4be d46f febd a60d 8dbe
000000c0: 0291 92bd 7ab2 87be d7cd 67be 103f b4be
000000d0: 6ae9 c3be 99f6 22be c47e b3be 825a 8abe
000000e0: 073a a9be 168f 14be 4e33 2dbe 3a4f ccbe
000000f0: 4f74 60be fb14 a1be 9151 0dbe 7a16 69be
00000100: 7d5f 85be 3f97 90be 9425 80be 7547 6cbe
00000110: 4875 f3bd 0749 d0bd 469b d8be 6e20 02be
00000120: 7803 95be 3b59 8bbe b059 a2be baf7 d9bd
00000130: 7ba5 98be fd08 d1bd e6f1 a6be 12a1 ddbe
00000140: 86bf afbe 3924 c2be 4d39 84be 09f6 c6be
00000150: e716 cfbd 7a31 43be 6948 8bbe 9188 a6be
